{
  "nodes": [
    {
      "op": "null", 
      "name": "images", 
      "inputs": []
    }, 
    {
      "op": "Reshape", 
      "name": "reshape0", 
      "attrs": {"shape": "(240, 3, 112, 112)"}, 
      "inputs": [[0, 0, 0]]
    }, 
    {
      "op": "null", 
      "name": "bn_data__tree_0_gamma", 
      "inputs": []
    }, 
    {
      "op": "null", 
      "name": "bn_data__tree_0_beta", 
      "inputs": []
    }, 
    {
      "op": "null", 
      "name": "bn_data_moving__tree_0_mean", 
      "attrs": {
        "__init__": "[\"zero\", {}]", 
        "eps": "2e-05", 
        "fix_gamma": "True", 
        "momentum": "0.9", 
        "use_global_stats": "False"
      }, 
      "inputs": []
    }, 
    {
      "op": "null", 
      "name": "bn_data_moving__tree_0_var", 
      "attrs": {
        "__init__": "[\"one\", {}]", 
        "eps": "2e-05", 
        "fix_gamma": "True", 
        "momentum": "0.9", 
        "use_global_stats": "False"
      }, 
      "inputs": []
    }, 
    {
      "op": "BatchNorm", 
      "name": "bn__tree_0_data", 
      "attrs": {
        "eps": "2e-05", 
        "fix_gamma": "True", 
        "momentum": "0.9", 
        "use_global_stats": "False"
      }, 
      "inputs": [[1, 0, 0], [2, 0, 0], [3, 0, 0], [4, 0, 1], [5, 0, 1]]
    }, 
    {
      "op": "null", 
      "name": "conv0__tree_0_weight", 
      "inputs": []
    }, 
    {
      "op": "Convolution", 
      "name": "_tree_0_conv0", 
      "attrs": {
        "cudnn_tune": "limited_workspace", 
        "dilate": "(1,1)", 
        "kernel": "(7,7)", 
        "no_bias": "True", 
        "num_filter": "64", 
        "num_group": "1", 
        "pad": "(3,3)", 
        "stride": "(2,2)", 
        "workspace": "512"
      }, 
      "inputs": [[6, 0, 0], [7, 0, 0]]
    }, 
    {
      "op": "null", 
      "name": "bn0__tree_0_gamma", 
      "inputs": []
    }, 
    {
      "op": "null", 
      "name": "bn0__tree_0_beta", 
      "inputs": []
    }, 
    {
      "op": "null", 
      "name": "bn0_moving__tree_0_mean", 
      "attrs": {
        "__init__": "[\"zero\", {}]", 
        "eps": "2e-05", 
        "fix_gamma": "False", 
        "momentum": "0.9", 
        "use_global_stats": "False"
      }, 
      "inputs": []
    }, 
    {
      "op": "null", 
      "name": "bn0_moving__tree_0_var", 
      "attrs": {
        "__init__": "[\"one\", {}]", 
        "eps": "2e-05", 
        "fix_gamma": "False", 
        "momentum": "0.9", 
        "use_global_stats": "False"
      }, 
      "inputs": []
    }, 
    {
      "op": "BatchNorm", 
      "name": "_tree_0_bn0", 
      "attrs": {
        "eps": "2e-05", 
        "fix_gamma": "False", 
        "momentum": "0.9", 
        "use_global_stats": "False"
      }, 
      "inputs": [[8, 0, 0], [9, 0, 0], [10, 0, 0], [11, 0, 0], [12, 0, 0]]
    }, 
    {
      "op": "Activation", 
      "name": "_tree_0_relu0", 
      "attrs": {"act_type": "relu"}, 
      "inputs": [[13, 0, 0]]
    }, 
    {
      "op": "Pooling", 
      "name": "_tree_0_pooling0", 
      "attrs": {
        "global_pool": "False", 
        "kernel": "(3,3)", 
        "pad": "(1,1)", 
        "pool_type": "max", 
        "stride": "(2,2)"
      }, 
      "inputs": [[14, 0, 0]]
    }, 
    {
      "op": "null", 
      "name": "stage1_unit1_bn1__tree_0_gamma", 
      "inputs": []
    }, 
    {
      "op": "null", 
      "name": "stage1_unit1_bn1__tree_0_beta", 
      "inputs": []
    }, 
    {
      "op": "null", 
      "name": "stage1_unit1_bn1_moving__tree_0_mean", 
      "attrs": {
        "__init__": "[\"zero\", {}]", 
        "eps": "2e-05", 
        "fix_gamma": "False", 
        "momentum": "0.9", 
        "use_global_stats": "False"
      }, 
      "inputs": []
    }, 
    {
      "op": "null", 
      "name": "stage1_unit1_bn1_moving__tree_0_var", 
      "attrs": {
        "__init__": "[\"one\", {}]", 
        "eps": "2e-05", 
        "fix_gamma": "False", 
        "momentum": "0.9", 
        "use_global_stats": "False"
      }, 
      "inputs": []
    }, 
    {
      "op": "BatchNorm", 
      "name": "stage1_unit1__tree_0_bn1", 
      "attrs": {
        "eps": "2e-05", 
        "fix_gamma": "False", 
        "momentum": "0.9", 
        "use_global_stats": "False"
      }, 
      "inputs": [[15, 0, 0], [16, 0, 0], [17, 0, 0], [18, 0, 0], [19, 0, 0]]
    }, 
    {
      "op": "Activation", 
      "name": "stage1_unit1__tree_0_relu1", 
      "attrs": {"act_type": "relu"}, 
      "inputs": [[20, 0, 0]]
    }, 
    {
      "op": "null", 
      "name": "stage1_unit1_conv1__tree_0_weight", 
      "inputs": []
    }, 
    {
      "op": "Convolution", 
      "name": "stage1_unit1__tree_0_conv1", 
      "attrs": {
        "cudnn_tune": "limited_workspace", 
        "dilate": "(1,1)", 
        "kernel": "(1,1)", 
        "no_bias": "True", 
        "num_filter": "64", 
        "num_group": "1", 
        "pad": "(0,0)", 
        "stride": "(1,1)", 
        "workspace": "512"
      }, 
      "inputs": [[21, 0, 0], [22, 0, 0]]
    }, 
    {
      "op": "null", 
      "name": "stage1_unit1_bn2__tree_0_gamma", 
      "inputs": []
    }, 
    {
      "op": "null", 
      "name": "stage1_unit1_bn2__tree_0_beta", 
      "inputs": []
    }, 
    {
      "op": "null", 
      "name": "stage1_unit1_bn2_moving__tree_0_mean", 
      "attrs": {
        "__init__": "[\"zero\", {}]", 
        "eps": "2e-05", 
        "fix_gamma": "False", 
        "momentum": "0.9", 
        "use_global_stats": "False"
      }, 
      "inputs": []
    }, 
    {
      "op": "null", 
      "name": "stage1_unit1_bn2_moving__tree_0_var", 
      "attrs": {
        "__init__": "[\"one\", {}]", 
        "eps": "2e-05", 
        "fix_gamma": "False", 
        "momentum": "0.9", 
        "use_global_stats": "False"
      }, 
      "inputs": []
    }, 
    {
      "op": "BatchNorm", 
      "name": "stage1_unit1__tree_0_bn2", 
      "attrs": {
        "eps": "2e-05", 
        "fix_gamma": "False", 
        "momentum": "0.9", 
        "use_global_stats": "False"
      }, 
      "inputs": [[23, 0, 0], [24, 0, 0], [25, 0, 0], [26, 0, 0], [27, 0, 0]]
    }, 
    {
      "op": "Activation", 
      "name": "stage1_unit1__tree_0_relu2", 
      "attrs": {"act_type": "relu"}, 
      "inputs": [[28, 0, 0]]
    }, 
    {
      "op": "null", 
      "name": "stage1_unit1_conv2__tree_0_weight", 
      "inputs": []
    }, 
    {
      "op": "Convolution", 
      "name": "stage1_unit1__tree_0_conv2", 
      "attrs": {
        "cudnn_tune": "limited_workspace", 
        "dilate": "(1,1)", 
        "kernel": "(3,3)", 
        "no_bias": "True", 
        "num_filter": "64", 
        "num_group": "1", 
        "pad": "(1,1)", 
        "stride": "(1,1)", 
        "workspace": "512"
      }, 
      "inputs": [[29, 0, 0], [30, 0, 0]]
    }, 
    {
      "op": "null", 
      "name": "stage1_unit1_bn3__tree_0_gamma", 
      "inputs": []
    }, 
    {
      "op": "null", 
      "name": "stage1_unit1_bn3__tree_0_beta", 
      "inputs": []
    }, 
    {
      "op": "null", 
      "name": "stage1_unit1_bn3_moving__tree_0_mean", 
      "attrs": {
        "__init__": "[\"zero\", {}]", 
        "eps": "2e-05", 
        "fix_gamma": "False", 
        "momentum": "0.9", 
        "use_global_stats": "False"
      }, 
      "inputs": []
    }, 
    {
      "op": "null", 
      "name": "stage1_unit1_bn3_moving__tree_0_var", 
      "attrs": {
        "__init__": "[\"one\", {}]", 
        "eps": "2e-05", 
        "fix_gamma": "False", 
        "momentum": "0.9", 
        "use_global_stats": "False"
      }, 
      "inputs": []
    }, 
    {
      "op": "BatchNorm", 
      "name": "stage1_unit1__tree_0_bn3", 
      "attrs": {
        "eps": "2e-05", 
        "fix_gamma": "False", 
        "momentum": "0.9", 
        "use_global_stats": "False"
      }, 
      "inputs": [[31, 0, 0], [32, 0, 0], [33, 0, 0], [34, 0, 0], [35, 0, 0]]
    }, 
    {
      "op": "Activation", 
      "name": "stage1_unit1__tree_0_relu3", 
      "attrs": {"act_type": "relu"}, 
      "inputs": [[36, 0, 0]]
    }, 
    {
      "op": "null", 
      "name": "stage1_unit1_conv3__tree_0_weight", 
      "inputs": []
    }, 
    {
      "op": "Convolution", 
      "name": "stage1_unit1__tree_0_conv3", 
      "attrs": {
        "cudnn_tune": "limited_workspace", 
        "dilate": "(1,1)", 
        "kernel": "(1,1)", 
        "no_bias": "True", 
        "num_filter": "256", 
        "num_group": "1", 
        "pad": "(0,0)", 
        "stride": "(1,1)", 
        "workspace": "512"
      }, 
      "inputs": [[37, 0, 0], [38, 0, 0]]
    }, 
    {
      "op": "null", 
      "name": "stage1_unit1_sc__tree_0_weight", 
      "inputs": []
    }, 
    {
      "op": "Convolution", 
      "name": "stage1_unit1__tree_0_sc", 
      "attrs": {
        "cudnn_tune": "limited_workspace", 
        "dilate": "(1,1)", 
        "kernel": "(1,1)", 
        "no_bias": "True", 
        "num_filter": "256", 
        "num_group": "1", 
        "pad": "(0,0)", 
        "stride": "(1,1)", 
        "workspace": "512"
      }, 
      "inputs": [[21, 0, 0], [40, 0, 0]]
    }, 
    {
      "op": "elemwise_add", 
      "name": "__tree_0_plus0", 
      "inputs": [[39, 0, 0], [41, 0, 0]]
    }, 
    {
      "op": "null", 
      "name": "stage1_unit2_bn1__tree_0_gamma", 
      "inputs": []
    }, 
    {
      "op": "null", 
      "name": "stage1_unit2_bn1__tree_0_beta", 
      "inputs": []
    }, 
    {
      "op": "null", 
      "name": "stage1_unit2_bn1_moving__tree_0_mean", 
      "attrs": {
        "__init__": "[\"zero\", {}]", 
        "eps": "2e-05", 
        "fix_gamma": "False", 
        "momentum": "0.9", 
        "use_global_stats": "False"
      }, 
      "inputs": []
    }, 
    {
      "op": "null", 
      "name": "stage1_unit2_bn1_moving__tree_0_var", 
      "attrs": {
        "__init__": "[\"one\", {}]", 
        "eps": "2e-05", 
        "fix_gamma": "False", 
        "momentum": "0.9", 
        "use_global_stats": "False"
      }, 
      "inputs": []
    }, 
    {
      "op": "BatchNorm", 
      "name": "stage1_unit2__tree_0_bn1", 
      "attrs": {
        "eps": "2e-05", 
        "fix_gamma": "False", 
        "momentum": "0.9", 
        "use_global_stats": "False"
      }, 
      "inputs": [[42, 0, 0], [43, 0, 0], [44, 0, 0], [45, 0, 0], [46, 0, 0]]
    }, 
    {
      "op": "Activation", 
      "name": "stage1_unit2__tree_0_relu1", 
      "attrs": {"act_type": "relu"}, 
      "inputs": [[47, 0, 0]]
    }, 
    {
      "op": "null", 
      "name": "stage1_unit2_conv1__tree_0_weight", 
      "inputs": []
    }, 
    {
      "op": "Convolution", 
      "name": "stage1_unit2__tree_0_conv1", 
      "attrs": {
        "cudnn_tune": "limited_workspace", 
        "dilate": "(1,1)", 
        "kernel": "(1,1)", 
        "no_bias": "True", 
        "num_filter": "64", 
        "num_group": "1", 
        "pad": "(0,0)", 
        "stride": "(1,1)", 
        "workspace": "512"
      }, 
      "inputs": [[48, 0, 0], [49, 0, 0]]
    }, 
    {
      "op": "null", 
      "name": "stage1_unit2_bn2__tree_0_gamma", 
      "inputs": []
    }, 
    {
      "op": "null", 
      "name": "stage1_unit2_bn2__tree_0_beta", 
      "inputs": []
    }, 
    {
      "op": "null", 
      "name": "stage1_unit2_bn2_moving__tree_0_mean", 
      "attrs": {
        "__init__": "[\"zero\", {}]", 
        "eps": "2e-05", 
        "fix_gamma": "False", 
        "momentum": "0.9", 
        "use_global_stats": "False"
      }, 
      "inputs": []
    }, 
    {
      "op": "null", 
      "name": "stage1_unit2_bn2_moving__tree_0_var", 
      "attrs": {
        "__init__": "[\"one\", {}]", 
        "eps": "2e-05", 
        "fix_gamma": "False", 
        "momentum": "0.9", 
        "use_global_stats": "False"
      }, 
      "inputs": []
    }, 
    {
      "op": "BatchNorm", 
      "name": "stage1_unit2__tree_0_bn2", 
      "attrs": {
        "eps": "2e-05", 
        "fix_gamma": "False", 
        "momentum": "0.9", 
        "use_global_stats": "False"
      }, 
      "inputs": [[50, 0, 0], [51, 0, 0], [52, 0, 0], [53, 0, 0], [54, 0, 0]]
    }, 
    {
      "op": "Activation", 
      "name": "stage1_unit2__tree_0_relu2", 
      "attrs": {"act_type": "relu"}, 
      "inputs": [[55, 0, 0]]
    }, 
    {
      "op": "null", 
      "name": "stage1_unit2_conv2__tree_0_weight", 
      "inputs": []
    }, 
    {
      "op": "Convolution", 
      "name": "stage1_unit2__tree_0_conv2", 
      "attrs": {
        "cudnn_tune": "limited_workspace", 
        "dilate": "(1,1)", 
        "kernel": "(3,3)", 
        "no_bias": "True", 
        "num_filter": "64", 
        "num_group": "1", 
        "pad": "(1,1)", 
        "stride": "(1,1)", 
        "workspace": "512"
      }, 
      "inputs": [[56, 0, 0], [57, 0, 0]]
    }, 
    {
      "op": "null", 
      "name": "stage1_unit2_bn3__tree_0_gamma", 
      "inputs": []
    }, 
    {
      "op": "null", 
      "name": "stage1_unit2_bn3__tree_0_beta", 
      "inputs": []
    }, 
    {
      "op": "null", 
      "name": "stage1_unit2_bn3_moving__tree_0_mean", 
      "attrs": {
        "__init__": "[\"zero\", {}]", 
        "eps": "2e-05", 
        "fix_gamma": "False", 
        "momentum": "0.9", 
        "use_global_stats": "False"
      }, 
      "inputs": []
    }, 
    {
      "op": "null", 
      "name": "stage1_unit2_bn3_moving__tree_0_var", 
      "attrs": {
        "__init__": "[\"one\", {}]", 
        "eps": "2e-05", 
        "fix_gamma": "False", 
        "momentum": "0.9", 
        "use_global_stats": "False"
      }, 
      "inputs": []
    }, 
    {
      "op": "BatchNorm", 
      "name": "stage1_unit2__tree_0_bn3", 
      "attrs": {
        "eps": "2e-05", 
        "fix_gamma": "False", 
        "momentum": "0.9", 
        "use_global_stats": "False"
      }, 
      "inputs": [[58, 0, 0], [59, 0, 0], [60, 0, 0], [61, 0, 0], [62, 0, 0]]
    }, 
    {
      "op": "Activation", 
      "name": "stage1_unit2__tree_0_relu3", 
      "attrs": {"act_type": "relu"}, 
      "inputs": [[63, 0, 0]]
    }, 
    {
      "op": "null", 
      "name": "stage1_unit2_conv3__tree_0_weight", 
      "inputs": []
    }, 
    {
      "op": "Convolution", 
      "name": "stage1_unit2__tree_0_conv3", 
      "attrs": {
        "cudnn_tune": "limited_workspace", 
        "dilate": "(1,1)", 
        "kernel": "(1,1)", 
        "no_bias": "True", 
        "num_filter": "256", 
        "num_group": "1", 
        "pad": "(0,0)", 
        "stride": "(1,1)", 
        "workspace": "512"
      }, 
      "inputs": [[64, 0, 0], [65, 0, 0]]
    }, 
    {
      "op": "elemwise_add", 
      "name": "__tree_0_plus1", 
      "inputs": [[66, 0, 0], [42, 0, 0]]
    }, 
    {
      "op": "null", 
      "name": "stage1_unit3_bn1__tree_0_gamma", 
      "inputs": []
    }, 
    {
      "op": "null", 
      "name": "stage1_unit3_bn1__tree_0_beta", 
      "inputs": []
    }, 
    {
      "op": "null", 
      "name": "stage1_unit3_bn1_moving__tree_0_mean", 
      "attrs": {
        "__init__": "[\"zero\", {}]", 
        "eps": "2e-05", 
        "fix_gamma": "False", 
        "momentum": "0.9", 
        "use_global_stats": "False"
      }, 
      "inputs": []
    }, 
    {
      "op": "null", 
      "name": "stage1_unit3_bn1_moving__tree_0_var", 
      "attrs": {
        "__init__": "[\"one\", {}]", 
        "eps": "2e-05", 
        "fix_gamma": "False", 
        "momentum": "0.9", 
        "use_global_stats": "False"
      }, 
      "inputs": []
    }, 
    {
      "op": "BatchNorm", 
      "name": "stage1_unit3__tree_0_bn1", 
      "attrs": {
        "eps": "2e-05", 
        "fix_gamma": "False", 
        "momentum": "0.9", 
        "use_global_stats": "False"
      }, 
      "inputs": [[67, 0, 0], [68, 0, 0], [69, 0, 0], [70, 0, 0], [71, 0, 0]]
    }, 
    {
      "op": "Activation", 
      "name": "stage1_unit3__tree_0_relu1", 
      "attrs": {"act_type": "relu"}, 
      "inputs": [[72, 0, 0]]
    }, 
    {
      "op": "null", 
      "name": "stage1_unit3_conv1__tree_0_weight", 
      "inputs": []
    }, 
    {
      "op": "Convolution", 
      "name": "stage1_unit3__tree_0_conv1", 
      "attrs": {
        "cudnn_tune": "limited_workspace", 
        "dilate": "(1,1)", 
        "kernel": "(1,1)", 
        "no_bias": "True", 
        "num_filter": "64", 
        "num_group": "1", 
        "pad": "(0,0)", 
        "stride": "(1,1)", 
        "workspace": "512"
      }, 
      "inputs": [[73, 0, 0], [74, 0, 0]]
    }, 
    {
      "op": "null", 
      "name": "stage1_unit3_bn2__tree_0_gamma", 
      "inputs": []
    }, 
    {
      "op": "null", 
      "name": "stage1_unit3_bn2__tree_0_beta", 
      "inputs": []
    }, 
    {
      "op": "null", 
      "name": "stage1_unit3_bn2_moving__tree_0_mean", 
      "attrs": {
        "__init__": "[\"zero\", {}]", 
        "eps": "2e-05", 
        "fix_gamma": "False", 
        "momentum": "0.9", 
        "use_global_stats": "False"
      }, 
      "inputs": []
    }, 
    {
      "op": "null", 
      "name": "stage1_unit3_bn2_moving__tree_0_var", 
      "attrs": {
        "__init__": "[\"one\", {}]", 
        "eps": "2e-05", 
        "fix_gamma": "False", 
        "momentum": "0.9", 
        "use_global_stats": "False"
      }, 
      "inputs": []
    }, 
    {
      "op": "BatchNorm", 
      "name": "stage1_unit3__tree_0_bn2", 
      "attrs": {
        "eps": "2e-05", 
        "fix_gamma": "False", 
        "momentum": "0.9", 
        "use_global_stats": "False"
      }, 
      "inputs": [[75, 0, 0], [76, 0, 0], [77, 0, 0], [78, 0, 0], [79, 0, 0]]
    }, 
    {
      "op": "Activation", 
      "name": "stage1_unit3__tree_0_relu2", 
      "attrs": {"act_type": "relu"}, 
      "inputs": [[80, 0, 0]]
    }, 
    {
      "op": "null", 
      "name": "stage1_unit3_conv2__tree_0_weight", 
      "inputs": []
    }, 
    {
      "op": "Convolution", 
      "name": "stage1_unit3__tree_0_conv2", 
      "attrs": {
        "cudnn_tune": "limited_workspace", 
        "dilate": "(1,1)", 
        "kernel": "(3,3)", 
        "no_bias": "True", 
        "num_filter": "64", 
        "num_group": "1", 
        "pad": "(1,1)", 
        "stride": "(1,1)", 
        "workspace": "512"
      }, 
      "inputs": [[81, 0, 0], [82, 0, 0]]
    }, 
    {
      "op": "null", 
      "name": "stage1_unit3_bn3__tree_0_gamma", 
      "inputs": []
    }, 
    {
      "op": "null", 
      "name": "stage1_unit3_bn3__tree_0_beta", 
      "inputs": []
    }, 
    {
      "op": "null", 
      "name": "stage1_unit3_bn3_moving__tree_0_mean", 
      "attrs": {
        "__init__": "[\"zero\", {}]", 
        "eps": "2e-05", 
        "fix_gamma": "False", 
        "momentum": "0.9", 
        "use_global_stats": "False"
      }, 
      "inputs": []
    }, 
    {
      "op": "null", 
      "name": "stage1_unit3_bn3_moving__tree_0_var", 
      "attrs": {
        "__init__": "[\"one\", {}]", 
        "eps": "2e-05", 
        "fix_gamma": "False", 
        "momentum": "0.9", 
        "use_global_stats": "False"
      }, 
      "inputs": []
    }, 
    {
      "op": "BatchNorm", 
      "name": "stage1_unit3__tree_0_bn3", 
      "attrs": {
        "eps": "2e-05", 
        "fix_gamma": "False", 
        "momentum": "0.9", 
        "use_global_stats": "False"
      }, 
      "inputs": [[83, 0, 0], [84, 0, 0], [85, 0, 0], [86, 0, 0], [87, 0, 0]]
    }, 
    {
      "op": "Activation", 
      "name": "stage1_unit3__tree_0_relu3", 
      "attrs": {"act_type": "relu"}, 
      "inputs": [[88, 0, 0]]
    }, 
    {
      "op": "null", 
      "name": "stage1_unit3_conv3__tree_0_weight", 
      "inputs": []
    }, 
    {
      "op": "Convolution", 
      "name": "stage1_unit3__tree_0_conv3", 
      "attrs": {
        "cudnn_tune": "limited_workspace", 
        "dilate": "(1,1)", 
        "kernel": "(1,1)", 
        "no_bias": "True", 
        "num_filter": "256", 
        "num_group": "1", 
        "pad": "(0,0)", 
        "stride": "(1,1)", 
        "workspace": "512"
      }, 
      "inputs": [[89, 0, 0], [90, 0, 0]]
    }, 
    {
      "op": "elemwise_add", 
      "name": "__tree_0_plus2", 
      "inputs": [[91, 0, 0], [67, 0, 0]]
    }, 
    {
      "op": "null", 
      "name": "stage2_unit1_bn1__tree_0_gamma", 
      "inputs": []
    }, 
    {
      "op": "null", 
      "name": "stage2_unit1_bn1__tree_0_beta", 
      "inputs": []
    }, 
    {
      "op": "null", 
      "name": "stage2_unit1_bn1_moving__tree_0_mean", 
      "attrs": {
        "__init__": "[\"zero\", {}]", 
        "eps": "2e-05", 
        "fix_gamma": "False", 
        "momentum": "0.9", 
        "use_global_stats": "False"
      }, 
      "inputs": []
    }, 
    {
      "op": "null", 
      "name": "stage2_unit1_bn1_moving__tree_0_var", 
      "attrs": {
        "__init__": "[\"one\", {}]", 
        "eps": "2e-05", 
        "fix_gamma": "False", 
        "momentum": "0.9", 
        "use_global_stats": "False"
      }, 
      "inputs": []
    }, 
    {
      "op": "BatchNorm", 
      "name": "stage2_unit1__tree_0_bn1", 
      "attrs": {
        "eps": "2e-05", 
        "fix_gamma": "False", 
        "momentum": "0.9", 
        "use_global_stats": "False"
      }, 
      "inputs": [[92, 0, 0], [93, 0, 0], [94, 0, 0], [95, 0, 0], [96, 0, 0]]
    }, 
    {
      "op": "Activation", 
      "name": "stage2_unit1__tree_0_relu1", 
      "attrs": {"act_type": "relu"}, 
      "inputs": [[97, 0, 0]]
    }, 
    {
      "op": "null", 
      "name": "stage2_unit1_conv1__tree_0_weight", 
      "inputs": []
    }, 
    {
      "op": "Convolution", 
      "name": "stage2_unit1__tree_0_conv1", 
      "attrs": {
        "cudnn_tune": "limited_workspace", 
        "dilate": "(1,1)", 
        "kernel": "(1,1)", 
        "no_bias": "True", 
        "num_filter": "128", 
        "num_group": "1", 
        "pad": "(0,0)", 
        "stride": "(1,1)", 
        "workspace": "512"
      }, 
      "inputs": [[98, 0, 0], [99, 0, 0]]
    }, 
    {
      "op": "null", 
      "name": "stage2_unit1_bn2__tree_0_gamma", 
      "inputs": []
    }, 
    {
      "op": "null", 
      "name": "stage2_unit1_bn2__tree_0_beta", 
      "inputs": []
    }, 
    {
      "op": "null", 
      "name": "stage2_unit1_bn2_moving__tree_0_mean", 
      "attrs": {
        "__init__": "[\"zero\", {}]", 
        "eps": "2e-05", 
        "fix_gamma": "False", 
        "momentum": "0.9", 
        "use_global_stats": "False"
      }, 
      "inputs": []
    }, 
    {
      "op": "null", 
      "name": "stage2_unit1_bn2_moving__tree_0_var", 
      "attrs": {
        "__init__": "[\"one\", {}]", 
        "eps": "2e-05", 
        "fix_gamma": "False", 
        "momentum": "0.9", 
        "use_global_stats": "False"
      }, 
      "inputs": []
    }, 
    {
      "op": "BatchNorm", 
      "name": "stage2_unit1__tree_0_bn2", 
      "attrs": {
        "eps": "2e-05", 
        "fix_gamma": "False", 
        "momentum": "0.9", 
        "use_global_stats": "False"
      }, 
      "inputs": [[100, 0, 0], [101, 0, 0], [102, 0, 0], [103, 0, 0], [104, 0, 0]]
    }, 
    {
      "op": "Activation", 
      "name": "stage2_unit1__tree_0_relu2", 
      "attrs": {"act_type": "relu"}, 
      "inputs": [[105, 0, 0]]
    }, 
    {
      "op": "null", 
      "name": "stage2_unit1_conv2__tree_0_weight", 
      "inputs": []
    }, 
    {
      "op": "Convolution", 
      "name": "stage2_unit1__tree_0_conv2", 
      "attrs": {
        "cudnn_tune": "limited_workspace", 
        "dilate": "(1,1)", 
        "kernel": "(3,3)", 
        "no_bias": "True", 
        "num_filter": "128", 
        "num_group": "1", 
        "pad": "(1,1)", 
        "stride": "(2,2)", 
        "workspace": "512"
      }, 
      "inputs": [[106, 0, 0], [107, 0, 0]]
    }, 
    {
      "op": "null", 
      "name": "stage2_unit1_bn3__tree_0_gamma", 
      "inputs": []
    }, 
    {
      "op": "null", 
      "name": "stage2_unit1_bn3__tree_0_beta", 
      "inputs": []
    }, 
    {
      "op": "null", 
      "name": "stage2_unit1_bn3_moving__tree_0_mean", 
      "attrs": {
        "__init__": "[\"zero\", {}]", 
        "eps": "2e-05", 
        "fix_gamma": "False", 
        "momentum": "0.9", 
        "use_global_stats": "False"
      }, 
      "inputs": []
    }, 
    {
      "op": "null", 
      "name": "stage2_unit1_bn3_moving__tree_0_var", 
      "attrs": {
        "__init__": "[\"one\", {}]", 
        "eps": "2e-05", 
        "fix_gamma": "False", 
        "momentum": "0.9", 
        "use_global_stats": "False"
      }, 
      "inputs": []
    }, 
    {
      "op": "BatchNorm", 
      "name": "stage2_unit1__tree_0_bn3", 
      "attrs": {
        "eps": "2e-05", 
        "fix_gamma": "False", 
        "momentum": "0.9", 
        "use_global_stats": "False"
      }, 
      "inputs": [[108, 0, 0], [109, 0, 0], [110, 0, 0], [111, 0, 0], [112, 0, 0]]
    }, 
    {
      "op": "Activation", 
      "name": "stage2_unit1__tree_0_relu3", 
      "attrs": {"act_type": "relu"}, 
      "inputs": [[113, 0, 0]]
    }, 
    {
      "op": "null", 
      "name": "stage2_unit1_conv3__tree_0_weight", 
      "inputs": []
    }, 
    {
      "op": "Convolution", 
      "name": "stage2_unit1__tree_0_conv3", 
      "attrs": {
        "cudnn_tune": "limited_workspace", 
        "dilate": "(1,1)", 
        "kernel": "(1,1)", 
        "no_bias": "True", 
        "num_filter": "512", 
        "num_group": "1", 
        "pad": "(0,0)", 
        "stride": "(1,1)", 
        "workspace": "512"
      }, 
      "inputs": [[114, 0, 0], [115, 0, 0]]
    }, 
    {
      "op": "null", 
      "name": "stage2_unit1_sc__tree_0_weight", 
      "inputs": []
    }, 
    {
      "op": "Convolution", 
      "name": "stage2_unit1__tree_0_sc", 
      "attrs": {
        "cudnn_tune": "limited_workspace", 
        "dilate": "(1,1)", 
        "kernel": "(1,1)", 
        "no_bias": "True", 
        "num_filter": "512", 
        "num_group": "1", 
        "pad": "(0,0)", 
        "stride": "(2,2)", 
        "workspace": "512"
      }, 
      "inputs": [[98, 0, 0], [117, 0, 0]]
    }, 
    {
      "op": "elemwise_add", 
      "name": "__tree_0_plus3", 
      "inputs": [[116, 0, 0], [118, 0, 0]]
    }, 
    {
      "op": "null", 
      "name": "stage2_unit2_bn1__tree_0_gamma", 
      "inputs": []
    }, 
    {
      "op": "null", 
      "name": "stage2_unit2_bn1__tree_0_beta", 
      "inputs": []
    }, 
    {
      "op": "null", 
      "name": "stage2_unit2_bn1_moving__tree_0_mean", 
      "attrs": {
        "__init__": "[\"zero\", {}]", 
        "eps": "2e-05", 
        "fix_gamma": "False", 
        "momentum": "0.9", 
        "use_global_stats": "False"
      }, 
      "inputs": []
    }, 
    {
      "op": "null", 
      "name": "stage2_unit2_bn1_moving__tree_0_var", 
      "attrs": {
        "__init__": "[\"one\", {}]", 
        "eps": "2e-05", 
        "fix_gamma": "False", 
        "momentum": "0.9", 
        "use_global_stats": "False"
      }, 
      "inputs": []
    }, 
    {
      "op": "BatchNorm", 
      "name": "stage2_unit2__tree_0_bn1", 
      "attrs": {
        "eps": "2e-05", 
        "fix_gamma": "False", 
        "momentum": "0.9", 
        "use_global_stats": "False"
      }, 
      "inputs": [[119, 0, 0], [120, 0, 0], [121, 0, 0], [122, 0, 0], [123, 0, 0]]
    }, 
    {
      "op": "Activation", 
      "name": "stage2_unit2__tree_0_relu1", 
      "attrs": {"act_type": "relu"}, 
      "inputs": [[124, 0, 0]]
    }, 
    {
      "op": "null", 
      "name": "stage2_unit2_conv1__tree_0_weight", 
      "inputs": []
    }, 
    {
      "op": "Convolution", 
      "name": "stage2_unit2__tree_0_conv1", 
      "attrs": {
        "cudnn_tune": "limited_workspace", 
        "dilate": "(1,1)", 
        "kernel": "(1,1)", 
        "no_bias": "True", 
        "num_filter": "128", 
        "num_group": "1", 
        "pad": "(0,0)", 
        "stride": "(1,1)", 
        "workspace": "512"
      }, 
      "inputs": [[125, 0, 0], [126, 0, 0]]
    }, 
    {
      "op": "null", 
      "name": "stage2_unit2_bn2__tree_0_gamma", 
      "inputs": []
    }, 
    {
      "op": "null", 
      "name": "stage2_unit2_bn2__tree_0_beta", 
      "inputs": []
    }, 
    {
      "op": "null", 
      "name": "stage2_unit2_bn2_moving__tree_0_mean", 
      "attrs": {
        "__init__": "[\"zero\", {}]", 
        "eps": "2e-05", 
        "fix_gamma": "False", 
        "momentum": "0.9", 
        "use_global_stats": "False"
      }, 
      "inputs": []
    }, 
    {
      "op": "null", 
      "name": "stage2_unit2_bn2_moving__tree_0_var", 
      "attrs": {
        "__init__": "[\"one\", {}]", 
        "eps": "2e-05", 
        "fix_gamma": "False", 
        "momentum": "0.9", 
        "use_global_stats": "False"
      }, 
      "inputs": []
    }, 
    {
      "op": "BatchNorm", 
      "name": "stage2_unit2__tree_0_bn2", 
      "attrs": {
        "eps": "2e-05", 
        "fix_gamma": "False", 
        "momentum": "0.9", 
        "use_global_stats": "False"
      }, 
      "inputs": [[127, 0, 0], [128, 0, 0], [129, 0, 0], [130, 0, 0], [131, 0, 0]]
    }, 
    {
      "op": "Activation", 
      "name": "stage2_unit2__tree_0_relu2", 
      "attrs": {"act_type": "relu"}, 
      "inputs": [[132, 0, 0]]
    }, 
    {
      "op": "null", 
      "name": "stage2_unit2_conv2__tree_0_weight", 
      "inputs": []
    }, 
    {
      "op": "Convolution", 
      "name": "stage2_unit2__tree_0_conv2", 
      "attrs": {
        "cudnn_tune": "limited_workspace", 
        "dilate": "(1,1)", 
        "kernel": "(3,3)", 
        "no_bias": "True", 
        "num_filter": "128", 
        "num_group": "1", 
        "pad": "(1,1)", 
        "stride": "(1,1)", 
        "workspace": "512"
      }, 
      "inputs": [[133, 0, 0], [134, 0, 0]]
    }, 
    {
      "op": "null", 
      "name": "stage2_unit2_bn3__tree_0_gamma", 
      "inputs": []
    }, 
    {
      "op": "null", 
      "name": "stage2_unit2_bn3__tree_0_beta", 
      "inputs": []
    }, 
    {
      "op": "null", 
      "name": "stage2_unit2_bn3_moving__tree_0_mean", 
      "attrs": {
        "__init__": "[\"zero\", {}]", 
        "eps": "2e-05", 
        "fix_gamma": "False", 
        "momentum": "0.9", 
        "use_global_stats": "False"
      }, 
      "inputs": []
    }, 
    {
      "op": "null", 
      "name": "stage2_unit2_bn3_moving__tree_0_var", 
      "attrs": {
        "__init__": "[\"one\", {}]", 
        "eps": "2e-05", 
        "fix_gamma": "False", 
        "momentum": "0.9", 
        "use_global_stats": "False"
      }, 
      "inputs": []
    }, 
    {
      "op": "BatchNorm", 
      "name": "stage2_unit2__tree_0_bn3", 
      "attrs": {
        "eps": "2e-05", 
        "fix_gamma": "False", 
        "momentum": "0.9", 
        "use_global_stats": "False"
      }, 
      "inputs": [[135, 0, 0], [136, 0, 0], [137, 0, 0], [138, 0, 0], [139, 0, 0]]
    }, 
    {
      "op": "Activation", 
      "name": "stage2_unit2__tree_0_relu3", 
      "attrs": {"act_type": "relu"}, 
      "inputs": [[140, 0, 0]]
    }, 
    {
      "op": "null", 
      "name": "stage2_unit2_conv3__tree_0_weight", 
      "inputs": []
    }, 
    {
      "op": "Convolution", 
      "name": "stage2_unit2__tree_0_conv3", 
      "attrs": {
        "cudnn_tune": "limited_workspace", 
        "dilate": "(1,1)", 
        "kernel": "(1,1)", 
        "no_bias": "True", 
        "num_filter": "512", 
        "num_group": "1", 
        "pad": "(0,0)", 
        "stride": "(1,1)", 
        "workspace": "512"
      }, 
      "inputs": [[141, 0, 0], [142, 0, 0]]
    }, 
    {
      "op": "elemwise_add", 
      "name": "__tree_0_plus4", 
      "inputs": [[143, 0, 0], [119, 0, 0]]
    }, 
    {
      "op": "null", 
      "name": "stage2_unit3_bn1__tree_0_gamma", 
      "inputs": []
    }, 
    {
      "op": "null", 
      "name": "stage2_unit3_bn1__tree_0_beta", 
      "inputs": []
    }, 
    {
      "op": "null", 
      "name": "stage2_unit3_bn1_moving__tree_0_mean", 
      "attrs": {
        "__init__": "[\"zero\", {}]", 
        "eps": "2e-05", 
        "fix_gamma": "False", 
        "momentum": "0.9", 
        "use_global_stats": "False"
      }, 
      "inputs": []
    }, 
    {
      "op": "null", 
      "name": "stage2_unit3_bn1_moving__tree_0_var", 
      "attrs": {
        "__init__": "[\"one\", {}]", 
        "eps": "2e-05", 
        "fix_gamma": "False", 
        "momentum": "0.9", 
        "use_global_stats": "False"
      }, 
      "inputs": []
    }, 
    {
      "op": "BatchNorm", 
      "name": "stage2_unit3__tree_0_bn1", 
      "attrs": {
        "eps": "2e-05", 
        "fix_gamma": "False", 
        "momentum": "0.9", 
        "use_global_stats": "False"
      }, 
      "inputs": [[144, 0, 0], [145, 0, 0], [146, 0, 0], [147, 0, 0], [148, 0, 0]]
    }, 
    {
      "op": "Activation", 
      "name": "stage2_unit3__tree_0_relu1", 
      "attrs": {"act_type": "relu"}, 
      "inputs": [[149, 0, 0]]
    }, 
    {
      "op": "null", 
      "name": "stage2_unit3_conv1__tree_0_weight", 
      "inputs": []
    }, 
    {
      "op": "Convolution", 
      "name": "stage2_unit3__tree_0_conv1", 
      "attrs": {
        "cudnn_tune": "limited_workspace", 
        "dilate": "(1,1)", 
        "kernel": "(1,1)", 
        "no_bias": "True", 
        "num_filter": "128", 
        "num_group": "1", 
        "pad": "(0,0)", 
        "stride": "(1,1)", 
        "workspace": "512"
      }, 
      "inputs": [[150, 0, 0], [151, 0, 0]]
    }, 
    {
      "op": "null", 
      "name": "stage2_unit3_bn2__tree_0_gamma", 
      "inputs": []
    }, 
    {
      "op": "null", 
      "name": "stage2_unit3_bn2__tree_0_beta", 
      "inputs": []
    }, 
    {
      "op": "null", 
      "name": "stage2_unit3_bn2_moving__tree_0_mean", 
      "attrs": {
        "__init__": "[\"zero\", {}]", 
        "eps": "2e-05", 
        "fix_gamma": "False", 
        "momentum": "0.9", 
        "use_global_stats": "False"
      }, 
      "inputs": []
    }, 
    {
      "op": "null", 
      "name": "stage2_unit3_bn2_moving__tree_0_var", 
      "attrs": {
        "__init__": "[\"one\", {}]", 
        "eps": "2e-05", 
        "fix_gamma": "False", 
        "momentum": "0.9", 
        "use_global_stats": "False"
      }, 
      "inputs": []
    }, 
    {
      "op": "BatchNorm", 
      "name": "stage2_unit3__tree_0_bn2", 
      "attrs": {
        "eps": "2e-05", 
        "fix_gamma": "False", 
        "momentum": "0.9", 
        "use_global_stats": "False"
      }, 
      "inputs": [[152, 0, 0], [153, 0, 0], [154, 0, 0], [155, 0, 0], [156, 0, 0]]
    }, 
    {
      "op": "Activation", 
      "name": "stage2_unit3__tree_0_relu2", 
      "attrs": {"act_type": "relu"}, 
      "inputs": [[157, 0, 0]]
    }, 
    {
      "op": "null", 
      "name": "stage2_unit3_conv2__tree_0_weight", 
      "inputs": []
    }, 
    {
      "op": "Convolution", 
      "name": "stage2_unit3__tree_0_conv2", 
      "attrs": {
        "cudnn_tune": "limited_workspace", 
        "dilate": "(1,1)", 
        "kernel": "(3,3)", 
        "no_bias": "True", 
        "num_filter": "128", 
        "num_group": "1", 
        "pad": "(1,1)", 
        "stride": "(1,1)", 
        "workspace": "512"
      }, 
      "inputs": [[158, 0, 0], [159, 0, 0]]
    }, 
    {
      "op": "null", 
      "name": "stage2_unit3_bn3__tree_0_gamma", 
      "inputs": []
    }, 
    {
      "op": "null", 
      "name": "stage2_unit3_bn3__tree_0_beta", 
      "inputs": []
    }, 
    {
      "op": "null", 
      "name": "stage2_unit3_bn3_moving__tree_0_mean", 
      "attrs": {
        "__init__": "[\"zero\", {}]", 
        "eps": "2e-05", 
        "fix_gamma": "False", 
        "momentum": "0.9", 
        "use_global_stats": "False"
      }, 
      "inputs": []
    }, 
    {
      "op": "null", 
      "name": "stage2_unit3_bn3_moving__tree_0_var", 
      "attrs": {
        "__init__": "[\"one\", {}]", 
        "eps": "2e-05", 
        "fix_gamma": "False", 
        "momentum": "0.9", 
        "use_global_stats": "False"
      }, 
      "inputs": []
    }, 
    {
      "op": "BatchNorm", 
      "name": "stage2_unit3__tree_0_bn3", 
      "attrs": {
        "eps": "2e-05", 
        "fix_gamma": "False", 
        "momentum": "0.9", 
        "use_global_stats": "False"
      }, 
      "inputs": [[160, 0, 0], [161, 0, 0], [162, 0, 0], [163, 0, 0], [164, 0, 0]]
    }, 
    {
      "op": "Activation", 
      "name": "stage2_unit3__tree_0_relu3", 
      "attrs": {"act_type": "relu"}, 
      "inputs": [[165, 0, 0]]
    }, 
    {
      "op": "null", 
      "name": "stage2_unit3_conv3__tree_0_weight", 
      "inputs": []
    }, 
    {
      "op": "Convolution", 
      "name": "stage2_unit3__tree_0_conv3", 
      "attrs": {
        "cudnn_tune": "limited_workspace", 
        "dilate": "(1,1)", 
        "kernel": "(1,1)", 
        "no_bias": "True", 
        "num_filter": "512", 
        "num_group": "1", 
        "pad": "(0,0)", 
        "stride": "(1,1)", 
        "workspace": "512"
      }, 
      "inputs": [[166, 0, 0], [167, 0, 0]]
    }, 
    {
      "op": "elemwise_add", 
      "name": "__tree_0_plus5", 
      "inputs": [[168, 0, 0], [144, 0, 0]]
    }, 
    {
      "op": "null", 
      "name": "stage2_unit4_bn1__tree_0_gamma", 
      "inputs": []
    }, 
    {
      "op": "null", 
      "name": "stage2_unit4_bn1__tree_0_beta", 
      "inputs": []
    }, 
    {
      "op": "null", 
      "name": "stage2_unit4_bn1_moving__tree_0_mean", 
      "attrs": {
        "__init__": "[\"zero\", {}]", 
        "eps": "2e-05", 
        "fix_gamma": "False", 
        "momentum": "0.9", 
        "use_global_stats": "False"
      }, 
      "inputs": []
    }, 
    {
      "op": "null", 
      "name": "stage2_unit4_bn1_moving__tree_0_var", 
      "attrs": {
        "__init__": "[\"one\", {}]", 
        "eps": "2e-05", 
        "fix_gamma": "False", 
        "momentum": "0.9", 
        "use_global_stats": "False"
      }, 
      "inputs": []
    }, 
    {
      "op": "BatchNorm", 
      "name": "stage2_unit4__tree_0_bn1", 
      "attrs": {
        "eps": "2e-05", 
        "fix_gamma": "False", 
        "momentum": "0.9", 
        "use_global_stats": "False"
      }, 
      "inputs": [[169, 0, 0], [170, 0, 0], [171, 0, 0], [172, 0, 0], [173, 0, 0]]
    }, 
    {
      "op": "Activation", 
      "name": "stage2_unit4__tree_0_relu1", 
      "attrs": {"act_type": "relu"}, 
      "inputs": [[174, 0, 0]]
    }, 
    {
      "op": "null", 
      "name": "stage2_unit4_conv1__tree_0_weight", 
      "inputs": []
    }, 
    {
      "op": "Convolution", 
      "name": "stage2_unit4__tree_0_conv1", 
      "attrs": {
        "cudnn_tune": "limited_workspace", 
        "dilate": "(1,1)", 
        "kernel": "(1,1)", 
        "no_bias": "True", 
        "num_filter": "128", 
        "num_group": "1", 
        "pad": "(0,0)", 
        "stride": "(1,1)", 
        "workspace": "512"
      }, 
      "inputs": [[175, 0, 0], [176, 0, 0]]
    }, 
    {
      "op": "null", 
      "name": "stage2_unit4_bn2__tree_0_gamma", 
      "inputs": []
    }, 
    {
      "op": "null", 
      "name": "stage2_unit4_bn2__tree_0_beta", 
      "inputs": []
    }, 
    {
      "op": "null", 
      "name": "stage2_unit4_bn2_moving__tree_0_mean", 
      "attrs": {
        "__init__": "[\"zero\", {}]", 
        "eps": "2e-05", 
        "fix_gamma": "False", 
        "momentum": "0.9", 
        "use_global_stats": "False"
      }, 
      "inputs": []
    }, 
    {
      "op": "null", 
      "name": "stage2_unit4_bn2_moving__tree_0_var", 
      "attrs": {
        "__init__": "[\"one\", {}]", 
        "eps": "2e-05", 
        "fix_gamma": "False", 
        "momentum": "0.9", 
        "use_global_stats": "False"
      }, 
      "inputs": []
    }, 
    {
      "op": "BatchNorm", 
      "name": "stage2_unit4__tree_0_bn2", 
      "attrs": {
        "eps": "2e-05", 
        "fix_gamma": "False", 
        "momentum": "0.9", 
        "use_global_stats": "False"
      }, 
      "inputs": [[177, 0, 0], [178, 0, 0], [179, 0, 0], [180, 0, 0], [181, 0, 0]]
    }, 
    {
      "op": "Activation", 
      "name": "stage2_unit4__tree_0_relu2", 
      "attrs": {"act_type": "relu"}, 
      "inputs": [[182, 0, 0]]
    }, 
    {
      "op": "null", 
      "name": "stage2_unit4_conv2__tree_0_weight", 
      "inputs": []
    }, 
    {
      "op": "Convolution", 
      "name": "stage2_unit4__tree_0_conv2", 
      "attrs": {
        "cudnn_tune": "limited_workspace", 
        "dilate": "(1,1)", 
        "kernel": "(3,3)", 
        "no_bias": "True", 
        "num_filter": "128", 
        "num_group": "1", 
        "pad": "(1,1)", 
        "stride": "(1,1)", 
        "workspace": "512"
      }, 
      "inputs": [[183, 0, 0], [184, 0, 0]]
    }, 
    {
      "op": "null", 
      "name": "stage2_unit4_bn3__tree_0_gamma", 
      "inputs": []
    }, 
    {
      "op": "null", 
      "name": "stage2_unit4_bn3__tree_0_beta", 
      "inputs": []
    }, 
    {
      "op": "null", 
      "name": "stage2_unit4_bn3_moving__tree_0_mean", 
      "attrs": {
        "__init__": "[\"zero\", {}]", 
        "eps": "2e-05", 
        "fix_gamma": "False", 
        "momentum": "0.9", 
        "use_global_stats": "False"
      }, 
      "inputs": []
    }, 
    {
      "op": "null", 
      "name": "stage2_unit4_bn3_moving__tree_0_var", 
      "attrs": {
        "__init__": "[\"one\", {}]", 
        "eps": "2e-05", 
        "fix_gamma": "False", 
        "momentum": "0.9", 
        "use_global_stats": "False"
      }, 
      "inputs": []
    }, 
    {
      "op": "BatchNorm", 
      "name": "stage2_unit4__tree_0_bn3", 
      "attrs": {
        "eps": "2e-05", 
        "fix_gamma": "False", 
        "momentum": "0.9", 
        "use_global_stats": "False"
      }, 
      "inputs": [[185, 0, 0], [186, 0, 0], [187, 0, 0], [188, 0, 0], [189, 0, 0]]
    }, 
    {
      "op": "Activation", 
      "name": "stage2_unit4__tree_0_relu3", 
      "attrs": {"act_type": "relu"}, 
      "inputs": [[190, 0, 0]]
    }, 
    {
      "op": "null", 
      "name": "stage2_unit4_conv3__tree_0_weight", 
      "inputs": []
    }, 
    {
      "op": "Convolution", 
      "name": "stage2_unit4__tree_0_conv3", 
      "attrs": {
        "cudnn_tune": "limited_workspace", 
        "dilate": "(1,1)", 
        "kernel": "(1,1)", 
        "no_bias": "True", 
        "num_filter": "512", 
        "num_group": "1", 
        "pad": "(0,0)", 
        "stride": "(1,1)", 
        "workspace": "512"
      }, 
      "inputs": [[191, 0, 0], [192, 0, 0]]
    }, 
    {
      "op": "elemwise_add", 
      "name": "__tree_0_plus6", 
      "inputs": [[193, 0, 0], [169, 0, 0]]
    }, 
    {
      "op": "null", 
      "name": "stage3_unit1_bn1__tree_0_gamma", 
      "inputs": []
    }, 
    {
      "op": "null", 
      "name": "stage3_unit1_bn1__tree_0_beta", 
      "inputs": []
    }, 
    {
      "op": "null", 
      "name": "stage3_unit1_bn1_moving__tree_0_mean", 
      "attrs": {
        "__init__": "[\"zero\", {}]", 
        "eps": "2e-05", 
        "fix_gamma": "False", 
        "momentum": "0.9", 
        "use_global_stats": "False"
      }, 
      "inputs": []
    }, 
    {
      "op": "null", 
      "name": "stage3_unit1_bn1_moving__tree_0_var", 
      "attrs": {
        "__init__": "[\"one\", {}]", 
        "eps": "2e-05", 
        "fix_gamma": "False", 
        "momentum": "0.9", 
        "use_global_stats": "False"
      }, 
      "inputs": []
    }, 
    {
      "op": "BatchNorm", 
      "name": "stage3_unit1__tree_0_bn1", 
      "attrs": {
        "eps": "2e-05", 
        "fix_gamma": "False", 
        "momentum": "0.9", 
        "use_global_stats": "False"
      }, 
      "inputs": [[194, 0, 0], [195, 0, 0], [196, 0, 0], [197, 0, 0], [198, 0, 0]]
    }, 
    {
      "op": "Activation", 
      "name": "stage3_unit1__tree_0_relu1", 
      "attrs": {"act_type": "relu"}, 
      "inputs": [[199, 0, 0]]
    }, 
    {
      "op": "null", 
      "name": "stage3_unit1_conv1__tree_0_weight", 
      "inputs": []
    }, 
    {
      "op": "Convolution", 
      "name": "stage3_unit1__tree_0_conv1", 
      "attrs": {
        "cudnn_tune": "limited_workspace", 
        "dilate": "(1,1)", 
        "kernel": "(1,1)", 
        "no_bias": "True", 
        "num_filter": "256", 
        "num_group": "1", 
        "pad": "(0,0)", 
        "stride": "(1,1)", 
        "workspace": "512"
      }, 
      "inputs": [[200, 0, 0], [201, 0, 0]]
    }, 
    {
      "op": "null", 
      "name": "stage3_unit1_bn2__tree_0_gamma", 
      "inputs": []
    }, 
    {
      "op": "null", 
      "name": "stage3_unit1_bn2__tree_0_beta", 
      "inputs": []
    }, 
    {
      "op": "null", 
      "name": "stage3_unit1_bn2_moving__tree_0_mean", 
      "attrs": {
        "__init__": "[\"zero\", {}]", 
        "eps": "2e-05", 
        "fix_gamma": "False", 
        "momentum": "0.9", 
        "use_global_stats": "False"
      }, 
      "inputs": []
    }, 
    {
      "op": "null", 
      "name": "stage3_unit1_bn2_moving__tree_0_var", 
      "attrs": {
        "__init__": "[\"one\", {}]", 
        "eps": "2e-05", 
        "fix_gamma": "False", 
        "momentum": "0.9", 
        "use_global_stats": "False"
      }, 
      "inputs": []
    }, 
    {
      "op": "BatchNorm", 
      "name": "stage3_unit1__tree_0_bn2", 
      "attrs": {
        "eps": "2e-05", 
        "fix_gamma": "False", 
        "momentum": "0.9", 
        "use_global_stats": "False"
      }, 
      "inputs": [[202, 0, 0], [203, 0, 0], [204, 0, 0], [205, 0, 0], [206, 0, 0]]
    }, 
    {
      "op": "Activation", 
      "name": "stage3_unit1__tree_0_relu2", 
      "attrs": {"act_type": "relu"}, 
      "inputs": [[207, 0, 0]]
    }, 
    {
      "op": "null", 
      "name": "stage3_unit1_conv2__tree_0_weight", 
      "inputs": []
    }, 
    {
      "op": "Convolution", 
      "name": "stage3_unit1__tree_0_conv2", 
      "attrs": {
        "cudnn_tune": "limited_workspace", 
        "dilate": "(1,1)", 
        "kernel": "(3,3)", 
        "no_bias": "True", 
        "num_filter": "256", 
        "num_group": "1", 
        "pad": "(1,1)", 
        "stride": "(2,2)", 
        "workspace": "512"
      }, 
      "inputs": [[208, 0, 0], [209, 0, 0]]
    }, 
    {
      "op": "null", 
      "name": "stage3_unit1_bn3__tree_0_gamma", 
      "inputs": []
    }, 
    {
      "op": "null", 
      "name": "stage3_unit1_bn3__tree_0_beta", 
      "inputs": []
    }, 
    {
      "op": "null", 
      "name": "stage3_unit1_bn3_moving__tree_0_mean", 
      "attrs": {
        "__init__": "[\"zero\", {}]", 
        "eps": "2e-05", 
        "fix_gamma": "False", 
        "momentum": "0.9", 
        "use_global_stats": "False"
      }, 
      "inputs": []
    }, 
    {
      "op": "null", 
      "name": "stage3_unit1_bn3_moving__tree_0_var", 
      "attrs": {
        "__init__": "[\"one\", {}]", 
        "eps": "2e-05", 
        "fix_gamma": "False", 
        "momentum": "0.9", 
        "use_global_stats": "False"
      }, 
      "inputs": []
    }, 
    {
      "op": "BatchNorm", 
      "name": "stage3_unit1__tree_0_bn3", 
      "attrs": {
        "eps": "2e-05", 
        "fix_gamma": "False", 
        "momentum": "0.9", 
        "use_global_stats": "False"
      }, 
      "inputs": [[210, 0, 0], [211, 0, 0], [212, 0, 0], [213, 0, 0], [214, 0, 0]]
    }, 
    {
      "op": "Activation", 
      "name": "stage3_unit1__tree_0_relu3", 
      "attrs": {"act_type": "relu"}, 
      "inputs": [[215, 0, 0]]
    }, 
    {
      "op": "null", 
      "name": "stage3_unit1_conv3__tree_0_weight", 
      "inputs": []
    }, 
    {
      "op": "Convolution", 
      "name": "stage3_unit1__tree_0_conv3", 
      "attrs": {
        "cudnn_tune": "limited_workspace", 
        "dilate": "(1,1)", 
        "kernel": "(1,1)", 
        "no_bias": "True", 
        "num_filter": "1024", 
        "num_group": "1", 
        "pad": "(0,0)", 
        "stride": "(1,1)", 
        "workspace": "512"
      }, 
      "inputs": [[216, 0, 0], [217, 0, 0]]
    }, 
    {
      "op": "null", 
      "name": "stage3_unit1_sc__tree_0_weight", 
      "inputs": []
    }, 
    {
      "op": "Convolution", 
      "name": "stage3_unit1__tree_0_sc", 
      "attrs": {
        "cudnn_tune": "limited_workspace", 
        "dilate": "(1,1)", 
        "kernel": "(1,1)", 
        "no_bias": "True", 
        "num_filter": "1024", 
        "num_group": "1", 
        "pad": "(0,0)", 
        "stride": "(2,2)", 
        "workspace": "512"
      }, 
      "inputs": [[200, 0, 0], [219, 0, 0]]
    }, 
    {
      "op": "elemwise_add", 
      "name": "__tree_0_plus7", 
      "inputs": [[218, 0, 0], [220, 0, 0]]
    }, 
    {
      "op": "null", 
      "name": "stage3_unit2_bn1__tree_0_gamma", 
      "inputs": []
    }, 
    {
      "op": "null", 
      "name": "stage3_unit2_bn1__tree_0_beta", 
      "inputs": []
    }, 
    {
      "op": "null", 
      "name": "stage3_unit2_bn1_moving__tree_0_mean", 
      "attrs": {
        "__init__": "[\"zero\", {}]", 
        "eps": "2e-05", 
        "fix_gamma": "False", 
        "momentum": "0.9", 
        "use_global_stats": "False"
      }, 
      "inputs": []
    }, 
    {
      "op": "null", 
      "name": "stage3_unit2_bn1_moving__tree_0_var", 
      "attrs": {
        "__init__": "[\"one\", {}]", 
        "eps": "2e-05", 
        "fix_gamma": "False", 
        "momentum": "0.9", 
        "use_global_stats": "False"
      }, 
      "inputs": []
    }, 
    {
      "op": "BatchNorm", 
      "name": "stage3_unit2__tree_0_bn1", 
      "attrs": {
        "eps": "2e-05", 
        "fix_gamma": "False", 
        "momentum": "0.9", 
        "use_global_stats": "False"
      }, 
      "inputs": [[221, 0, 0], [222, 0, 0], [223, 0, 0], [224, 0, 0], [225, 0, 0]]
    }, 
    {
      "op": "Activation", 
      "name": "stage3_unit2__tree_0_relu1", 
      "attrs": {"act_type": "relu"}, 
      "inputs": [[226, 0, 0]]
    }, 
    {
      "op": "null", 
      "name": "stage3_unit2_conv1__tree_0_weight", 
      "inputs": []
    }, 
    {
      "op": "Convolution", 
      "name": "stage3_unit2__tree_0_conv1", 
      "attrs": {
        "cudnn_tune": "limited_workspace", 
        "dilate": "(1,1)", 
        "kernel": "(1,1)", 
        "no_bias": "True", 
        "num_filter": "256", 
        "num_group": "1", 
        "pad": "(0,0)", 
        "stride": "(1,1)", 
        "workspace": "512"
      }, 
      "inputs": [[227, 0, 0], [228, 0, 0]]
    }, 
    {
      "op": "null", 
      "name": "stage3_unit2_bn2__tree_0_gamma", 
      "inputs": []
    }, 
    {
      "op": "null", 
      "name": "stage3_unit2_bn2__tree_0_beta", 
      "inputs": []
    }, 
    {
      "op": "null", 
      "name": "stage3_unit2_bn2_moving__tree_0_mean", 
      "attrs": {
        "__init__": "[\"zero\", {}]", 
        "eps": "2e-05", 
        "fix_gamma": "False", 
        "momentum": "0.9", 
        "use_global_stats": "False"
      }, 
      "inputs": []
    }, 
    {
      "op": "null", 
      "name": "stage3_unit2_bn2_moving__tree_0_var", 
      "attrs": {
        "__init__": "[\"one\", {}]", 
        "eps": "2e-05", 
        "fix_gamma": "False", 
        "momentum": "0.9", 
        "use_global_stats": "False"
      }, 
      "inputs": []
    }, 
    {
      "op": "BatchNorm", 
      "name": "stage3_unit2__tree_0_bn2", 
      "attrs": {
        "eps": "2e-05", 
        "fix_gamma": "False", 
        "momentum": "0.9", 
        "use_global_stats": "False"
      }, 
      "inputs": [[229, 0, 0], [230, 0, 0], [231, 0, 0], [232, 0, 0], [233, 0, 0]]
    }, 
    {
      "op": "Activation", 
      "name": "stage3_unit2__tree_0_relu2", 
      "attrs": {"act_type": "relu"}, 
      "inputs": [[234, 0, 0]]
    }, 
    {
      "op": "null", 
      "name": "stage3_unit2_conv2__tree_0_weight", 
      "inputs": []
    }, 
    {
      "op": "Convolution", 
      "name": "stage3_unit2__tree_0_conv2", 
      "attrs": {
        "cudnn_tune": "limited_workspace", 
        "dilate": "(1,1)", 
        "kernel": "(3,3)", 
        "no_bias": "True", 
        "num_filter": "256", 
        "num_group": "1", 
        "pad": "(1,1)", 
        "stride": "(1,1)", 
        "workspace": "512"
      }, 
      "inputs": [[235, 0, 0], [236, 0, 0]]
    }, 
    {
      "op": "null", 
      "name": "stage3_unit2_bn3__tree_0_gamma", 
      "inputs": []
    }, 
    {
      "op": "null", 
      "name": "stage3_unit2_bn3__tree_0_beta", 
      "inputs": []
    }, 
    {
      "op": "null", 
      "name": "stage3_unit2_bn3_moving__tree_0_mean", 
      "attrs": {
        "__init__": "[\"zero\", {}]", 
        "eps": "2e-05", 
        "fix_gamma": "False", 
        "momentum": "0.9", 
        "use_global_stats": "False"
      }, 
      "inputs": []
    }, 
    {
      "op": "null", 
      "name": "stage3_unit2_bn3_moving__tree_0_var", 
      "attrs": {
        "__init__": "[\"one\", {}]", 
        "eps": "2e-05", 
        "fix_gamma": "False", 
        "momentum": "0.9", 
        "use_global_stats": "False"
      }, 
      "inputs": []
    }, 
    {
      "op": "BatchNorm", 
      "name": "stage3_unit2__tree_0_bn3", 
      "attrs": {
        "eps": "2e-05", 
        "fix_gamma": "False", 
        "momentum": "0.9", 
        "use_global_stats": "False"
      }, 
      "inputs": [[237, 0, 0], [238, 0, 0], [239, 0, 0], [240, 0, 0], [241, 0, 0]]
    }, 
    {
      "op": "Activation", 
      "name": "stage3_unit2__tree_0_relu3", 
      "attrs": {"act_type": "relu"}, 
      "inputs": [[242, 0, 0]]
    }, 
    {
      "op": "null", 
      "name": "stage3_unit2_conv3__tree_0_weight", 
      "inputs": []
    }, 
    {
      "op": "Convolution", 
      "name": "stage3_unit2__tree_0_conv3", 
      "attrs": {
        "cudnn_tune": "limited_workspace", 
        "dilate": "(1,1)", 
        "kernel": "(1,1)", 
        "no_bias": "True", 
        "num_filter": "1024", 
        "num_group": "1", 
        "pad": "(0,0)", 
        "stride": "(1,1)", 
        "workspace": "512"
      }, 
      "inputs": [[243, 0, 0], [244, 0, 0]]
    }, 
    {
      "op": "elemwise_add", 
      "name": "__tree_0_plus8", 
      "inputs": [[245, 0, 0], [221, 0, 0]]
    }, 
    {
      "op": "null", 
      "name": "stage3_unit3_bn1__tree_0_gamma", 
      "inputs": []
    }, 
    {
      "op": "null", 
      "name": "stage3_unit3_bn1__tree_0_beta", 
      "inputs": []
    }, 
    {
      "op": "null", 
      "name": "stage3_unit3_bn1_moving__tree_0_mean", 
      "attrs": {
        "__init__": "[\"zero\", {}]", 
        "eps": "2e-05", 
        "fix_gamma": "False", 
        "momentum": "0.9", 
        "use_global_stats": "False"
      }, 
      "inputs": []
    }, 
    {
      "op": "null", 
      "name": "stage3_unit3_bn1_moving__tree_0_var", 
      "attrs": {
        "__init__": "[\"one\", {}]", 
        "eps": "2e-05", 
        "fix_gamma": "False", 
        "momentum": "0.9", 
        "use_global_stats": "False"
      }, 
      "inputs": []
    }, 
    {
      "op": "BatchNorm", 
      "name": "stage3_unit3__tree_0_bn1", 
      "attrs": {
        "eps": "2e-05", 
        "fix_gamma": "False", 
        "momentum": "0.9", 
        "use_global_stats": "False"
      }, 
      "inputs": [[246, 0, 0], [247, 0, 0], [248, 0, 0], [249, 0, 0], [250, 0, 0]]
    }, 
    {
      "op": "Activation", 
      "name": "stage3_unit3__tree_0_relu1", 
      "attrs": {"act_type": "relu"}, 
      "inputs": [[251, 0, 0]]
    }, 
    {
      "op": "null", 
      "name": "stage3_unit3_conv1__tree_0_weight", 
      "inputs": []
    }, 
    {
      "op": "Convolution", 
      "name": "stage3_unit3__tree_0_conv1", 
      "attrs": {
        "cudnn_tune": "limited_workspace", 
        "dilate": "(1,1)", 
        "kernel": "(1,1)", 
        "no_bias": "True", 
        "num_filter": "256", 
        "num_group": "1", 
        "pad": "(0,0)", 
        "stride": "(1,1)", 
        "workspace": "512"
      }, 
      "inputs": [[252, 0, 0], [253, 0, 0]]
    }, 
    {
      "op": "null", 
      "name": "stage3_unit3_bn2__tree_0_gamma", 
      "inputs": []
    }, 
    {
      "op": "null", 
      "name": "stage3_unit3_bn2__tree_0_beta", 
      "inputs": []
    }, 
    {
      "op": "null", 
      "name": "stage3_unit3_bn2_moving__tree_0_mean", 
      "attrs": {
        "__init__": "[\"zero\", {}]", 
        "eps": "2e-05", 
        "fix_gamma": "False", 
        "momentum": "0.9", 
        "use_global_stats": "False"
      }, 
      "inputs": []
    }, 
    {
      "op": "null", 
      "name": "stage3_unit3_bn2_moving__tree_0_var", 
      "attrs": {
        "__init__": "[\"one\", {}]", 
        "eps": "2e-05", 
        "fix_gamma": "False", 
        "momentum": "0.9", 
        "use_global_stats": "False"
      }, 
      "inputs": []
    }, 
    {
      "op": "BatchNorm", 
      "name": "stage3_unit3__tree_0_bn2", 
      "attrs": {
        "eps": "2e-05", 
        "fix_gamma": "False", 
        "momentum": "0.9", 
        "use_global_stats": "False"
      }, 
      "inputs": [[254, 0, 0], [255, 0, 0], [256, 0, 0], [257, 0, 0], [258, 0, 0]]
    }, 
    {
      "op": "Activation", 
      "name": "stage3_unit3__tree_0_relu2", 
      "attrs": {"act_type": "relu"}, 
      "inputs": [[259, 0, 0]]
    }, 
    {
      "op": "null", 
      "name": "stage3_unit3_conv2__tree_0_weight", 
      "inputs": []
    }, 
    {
      "op": "Convolution", 
      "name": "stage3_unit3__tree_0_conv2", 
      "attrs": {
        "cudnn_tune": "limited_workspace", 
        "dilate": "(1,1)", 
        "kernel": "(3,3)", 
        "no_bias": "True", 
        "num_filter": "256", 
        "num_group": "1", 
        "pad": "(1,1)", 
        "stride": "(1,1)", 
        "workspace": "512"
      }, 
      "inputs": [[260, 0, 0], [261, 0, 0]]
    }, 
    {
      "op": "null", 
      "name": "stage3_unit3_bn3__tree_0_gamma", 
      "inputs": []
    }, 
    {
      "op": "null", 
      "name": "stage3_unit3_bn3__tree_0_beta", 
      "inputs": []
    }, 
    {
      "op": "null", 
      "name": "stage3_unit3_bn3_moving__tree_0_mean", 
      "attrs": {
        "__init__": "[\"zero\", {}]", 
        "eps": "2e-05", 
        "fix_gamma": "False", 
        "momentum": "0.9", 
        "use_global_stats": "False"
      }, 
      "inputs": []
    }, 
    {
      "op": "null", 
      "name": "stage3_unit3_bn3_moving__tree_0_var", 
      "attrs": {
        "__init__": "[\"one\", {}]", 
        "eps": "2e-05", 
        "fix_gamma": "False", 
        "momentum": "0.9", 
        "use_global_stats": "False"
      }, 
      "inputs": []
    }, 
    {
      "op": "BatchNorm", 
      "name": "stage3_unit3__tree_0_bn3", 
      "attrs": {
        "eps": "2e-05", 
        "fix_gamma": "False", 
        "momentum": "0.9", 
        "use_global_stats": "False"
      }, 
      "inputs": [[262, 0, 0], [263, 0, 0], [264, 0, 0], [265, 0, 0], [266, 0, 0]]
    }, 
    {
      "op": "Activation", 
      "name": "stage3_unit3__tree_0_relu3", 
      "attrs": {"act_type": "relu"}, 
      "inputs": [[267, 0, 0]]
    }, 
    {
      "op": "null", 
      "name": "stage3_unit3_conv3__tree_0_weight", 
      "inputs": []
    }, 
    {
      "op": "Convolution", 
      "name": "stage3_unit3__tree_0_conv3", 
      "attrs": {
        "cudnn_tune": "limited_workspace", 
        "dilate": "(1,1)", 
        "kernel": "(1,1)", 
        "no_bias": "True", 
        "num_filter": "1024", 
        "num_group": "1", 
        "pad": "(0,0)", 
        "stride": "(1,1)", 
        "workspace": "512"
      }, 
      "inputs": [[268, 0, 0], [269, 0, 0]]
    }, 
    {
      "op": "elemwise_add", 
      "name": "__tree_0_plus9", 
      "inputs": [[270, 0, 0], [246, 0, 0]]
    }, 
    {
      "op": "null", 
      "name": "stage3_unit4_bn1__tree_0_gamma", 
      "inputs": []
    }, 
    {
      "op": "null", 
      "name": "stage3_unit4_bn1__tree_0_beta", 
      "inputs": []
    }, 
    {
      "op": "null", 
      "name": "stage3_unit4_bn1_moving__tree_0_mean", 
      "attrs": {
        "__init__": "[\"zero\", {}]", 
        "eps": "2e-05", 
        "fix_gamma": "False", 
        "momentum": "0.9", 
        "use_global_stats": "False"
      }, 
      "inputs": []
    }, 
    {
      "op": "null", 
      "name": "stage3_unit4_bn1_moving__tree_0_var", 
      "attrs": {
        "__init__": "[\"one\", {}]", 
        "eps": "2e-05", 
        "fix_gamma": "False", 
        "momentum": "0.9", 
        "use_global_stats": "False"
      }, 
      "inputs": []
    }, 
    {
      "op": "BatchNorm", 
      "name": "stage3_unit4__tree_0_bn1", 
      "attrs": {
        "eps": "2e-05", 
        "fix_gamma": "False", 
        "momentum": "0.9", 
        "use_global_stats": "False"
      }, 
      "inputs": [[271, 0, 0], [272, 0, 0], [273, 0, 0], [274, 0, 0], [275, 0, 0]]
    }, 
    {
      "op": "Activation", 
      "name": "stage3_unit4__tree_0_relu1", 
      "attrs": {"act_type": "relu"}, 
      "inputs": [[276, 0, 0]]
    }, 
    {
      "op": "null", 
      "name": "stage3_unit4_conv1__tree_0_weight", 
      "inputs": []
    }, 
    {
      "op": "Convolution", 
      "name": "stage3_unit4__tree_0_conv1", 
      "attrs": {
        "cudnn_tune": "limited_workspace", 
        "dilate": "(1,1)", 
        "kernel": "(1,1)", 
        "no_bias": "True", 
        "num_filter": "256", 
        "num_group": "1", 
        "pad": "(0,0)", 
        "stride": "(1,1)", 
        "workspace": "512"
      }, 
      "inputs": [[277, 0, 0], [278, 0, 0]]
    }, 
    {
      "op": "null", 
      "name": "stage3_unit4_bn2__tree_0_gamma", 
      "inputs": []
    }, 
    {
      "op": "null", 
      "name": "stage3_unit4_bn2__tree_0_beta", 
      "inputs": []
    }, 
    {
      "op": "null", 
      "name": "stage3_unit4_bn2_moving__tree_0_mean", 
      "attrs": {
        "__init__": "[\"zero\", {}]", 
        "eps": "2e-05", 
        "fix_gamma": "False", 
        "momentum": "0.9", 
        "use_global_stats": "False"
      }, 
      "inputs": []
    }, 
    {
      "op": "null", 
      "name": "stage3_unit4_bn2_moving__tree_0_var", 
      "attrs": {
        "__init__": "[\"one\", {}]", 
        "eps": "2e-05", 
        "fix_gamma": "False", 
        "momentum": "0.9", 
        "use_global_stats": "False"
      }, 
      "inputs": []
    }, 
    {
      "op": "BatchNorm", 
      "name": "stage3_unit4__tree_0_bn2", 
      "attrs": {
        "eps": "2e-05", 
        "fix_gamma": "False", 
        "momentum": "0.9", 
        "use_global_stats": "False"
      }, 
      "inputs": [[279, 0, 0], [280, 0, 0], [281, 0, 0], [282, 0, 0], [283, 0, 0]]
    }, 
    {
      "op": "Activation", 
      "name": "stage3_unit4__tree_0_relu2", 
      "attrs": {"act_type": "relu"}, 
      "inputs": [[284, 0, 0]]
    }, 
    {
      "op": "null", 
      "name": "stage3_unit4_conv2__tree_0_weight", 
      "inputs": []
    }, 
    {
      "op": "Convolution", 
      "name": "stage3_unit4__tree_0_conv2", 
      "attrs": {
        "cudnn_tune": "limited_workspace", 
        "dilate": "(1,1)", 
        "kernel": "(3,3)", 
        "no_bias": "True", 
        "num_filter": "256", 
        "num_group": "1", 
        "pad": "(1,1)", 
        "stride": "(1,1)", 
        "workspace": "512"
      }, 
      "inputs": [[285, 0, 0], [286, 0, 0]]
    }, 
    {
      "op": "null", 
      "name": "stage3_unit4_bn3__tree_0_gamma", 
      "inputs": []
    }, 
    {
      "op": "null", 
      "name": "stage3_unit4_bn3__tree_0_beta", 
      "inputs": []
    }, 
    {
      "op": "null", 
      "name": "stage3_unit4_bn3_moving__tree_0_mean", 
      "attrs": {
        "__init__": "[\"zero\", {}]", 
        "eps": "2e-05", 
        "fix_gamma": "False", 
        "momentum": "0.9", 
        "use_global_stats": "False"
      }, 
      "inputs": []
    }, 
    {
      "op": "null", 
      "name": "stage3_unit4_bn3_moving__tree_0_var", 
      "attrs": {
        "__init__": "[\"one\", {}]", 
        "eps": "2e-05", 
        "fix_gamma": "False", 
        "momentum": "0.9", 
        "use_global_stats": "False"
      }, 
      "inputs": []
    }, 
    {
      "op": "BatchNorm", 
      "name": "stage3_unit4__tree_0_bn3", 
      "attrs": {
        "eps": "2e-05", 
        "fix_gamma": "False", 
        "momentum": "0.9", 
        "use_global_stats": "False"
      }, 
      "inputs": [[287, 0, 0], [288, 0, 0], [289, 0, 0], [290, 0, 0], [291, 0, 0]]
    }, 
    {
      "op": "Activation", 
      "name": "stage3_unit4__tree_0_relu3", 
      "attrs": {"act_type": "relu"}, 
      "inputs": [[292, 0, 0]]
    }, 
    {
      "op": "null", 
      "name": "stage3_unit4_conv3__tree_0_weight", 
      "inputs": []
    }, 
    {
      "op": "Convolution", 
      "name": "stage3_unit4__tree_0_conv3", 
      "attrs": {
        "cudnn_tune": "limited_workspace", 
        "dilate": "(1,1)", 
        "kernel": "(1,1)", 
        "no_bias": "True", 
        "num_filter": "1024", 
        "num_group": "1", 
        "pad": "(0,0)", 
        "stride": "(1,1)", 
        "workspace": "512"
      }, 
      "inputs": [[293, 0, 0], [294, 0, 0]]
    }, 
    {
      "op": "elemwise_add", 
      "name": "__tree_0_plus10", 
      "inputs": [[295, 0, 0], [271, 0, 0]]
    }, 
    {
      "op": "null", 
      "name": "stage3_unit5_bn1__tree_0_gamma", 
      "inputs": []
    }, 
    {
      "op": "null", 
      "name": "stage3_unit5_bn1__tree_0_beta", 
      "inputs": []
    }, 
    {
      "op": "null", 
      "name": "stage3_unit5_bn1_moving__tree_0_mean", 
      "attrs": {
        "__init__": "[\"zero\", {}]", 
        "eps": "2e-05", 
        "fix_gamma": "False", 
        "momentum": "0.9", 
        "use_global_stats": "False"
      }, 
      "inputs": []
    }, 
    {
      "op": "null", 
      "name": "stage3_unit5_bn1_moving__tree_0_var", 
      "attrs": {
        "__init__": "[\"one\", {}]", 
        "eps": "2e-05", 
        "fix_gamma": "False", 
        "momentum": "0.9", 
        "use_global_stats": "False"
      }, 
      "inputs": []
    }, 
    {
      "op": "BatchNorm", 
      "name": "stage3_unit5__tree_0_bn1", 
      "attrs": {
        "eps": "2e-05", 
        "fix_gamma": "False", 
        "momentum": "0.9", 
        "use_global_stats": "False"
      }, 
      "inputs": [[296, 0, 0], [297, 0, 0], [298, 0, 0], [299, 0, 0], [300, 0, 0]]
    }, 
    {
      "op": "Activation", 
      "name": "stage3_unit5__tree_0_relu1", 
      "attrs": {"act_type": "relu"}, 
      "inputs": [[301, 0, 0]]
    }, 
    {
      "op": "null", 
      "name": "stage3_unit5_conv1__tree_0_weight", 
      "inputs": []
    }, 
    {
      "op": "Convolution", 
      "name": "stage3_unit5__tree_0_conv1", 
      "attrs": {
        "cudnn_tune": "limited_workspace", 
        "dilate": "(1,1)", 
        "kernel": "(1,1)", 
        "no_bias": "True", 
        "num_filter": "256", 
        "num_group": "1", 
        "pad": "(0,0)", 
        "stride": "(1,1)", 
        "workspace": "512"
      }, 
      "inputs": [[302, 0, 0], [303, 0, 0]]
    }, 
    {
      "op": "null", 
      "name": "stage3_unit5_bn2__tree_0_gamma", 
      "inputs": []
    }, 
    {
      "op": "null", 
      "name": "stage3_unit5_bn2__tree_0_beta", 
      "inputs": []
    }, 
    {
      "op": "null", 
      "name": "stage3_unit5_bn2_moving__tree_0_mean", 
      "attrs": {
        "__init__": "[\"zero\", {}]", 
        "eps": "2e-05", 
        "fix_gamma": "False", 
        "momentum": "0.9", 
        "use_global_stats": "False"
      }, 
      "inputs": []
    }, 
    {
      "op": "null", 
      "name": "stage3_unit5_bn2_moving__tree_0_var", 
      "attrs": {
        "__init__": "[\"one\", {}]", 
        "eps": "2e-05", 
        "fix_gamma": "False", 
        "momentum": "0.9", 
        "use_global_stats": "False"
      }, 
      "inputs": []
    }, 
    {
      "op": "BatchNorm", 
      "name": "stage3_unit5__tree_0_bn2", 
      "attrs": {
        "eps": "2e-05", 
        "fix_gamma": "False", 
        "momentum": "0.9", 
        "use_global_stats": "False"
      }, 
      "inputs": [[304, 0, 0], [305, 0, 0], [306, 0, 0], [307, 0, 0], [308, 0, 0]]
    }, 
    {
      "op": "Activation", 
      "name": "stage3_unit5__tree_0_relu2", 
      "attrs": {"act_type": "relu"}, 
      "inputs": [[309, 0, 0]]
    }, 
    {
      "op": "null", 
      "name": "stage3_unit5_conv2__tree_0_weight", 
      "inputs": []
    }, 
    {
      "op": "Convolution", 
      "name": "stage3_unit5__tree_0_conv2", 
      "attrs": {
        "cudnn_tune": "limited_workspace", 
        "dilate": "(1,1)", 
        "kernel": "(3,3)", 
        "no_bias": "True", 
        "num_filter": "256", 
        "num_group": "1", 
        "pad": "(1,1)", 
        "stride": "(1,1)", 
        "workspace": "512"
      }, 
      "inputs": [[310, 0, 0], [311, 0, 0]]
    }, 
    {
      "op": "null", 
      "name": "stage3_unit5_bn3__tree_0_gamma", 
      "inputs": []
    }, 
    {
      "op": "null", 
      "name": "stage3_unit5_bn3__tree_0_beta", 
      "inputs": []
    }, 
    {
      "op": "null", 
      "name": "stage3_unit5_bn3_moving__tree_0_mean", 
      "attrs": {
        "__init__": "[\"zero\", {}]", 
        "eps": "2e-05", 
        "fix_gamma": "False", 
        "momentum": "0.9", 
        "use_global_stats": "False"
      }, 
      "inputs": []
    }, 
    {
      "op": "null", 
      "name": "stage3_unit5_bn3_moving__tree_0_var", 
      "attrs": {
        "__init__": "[\"one\", {}]", 
        "eps": "2e-05", 
        "fix_gamma": "False", 
        "momentum": "0.9", 
        "use_global_stats": "False"
      }, 
      "inputs": []
    }, 
    {
      "op": "BatchNorm", 
      "name": "stage3_unit5__tree_0_bn3", 
      "attrs": {
        "eps": "2e-05", 
        "fix_gamma": "False", 
        "momentum": "0.9", 
        "use_global_stats": "False"
      }, 
      "inputs": [[312, 0, 0], [313, 0, 0], [314, 0, 0], [315, 0, 0], [316, 0, 0]]
    }, 
    {
      "op": "Activation", 
      "name": "stage3_unit5__tree_0_relu3", 
      "attrs": {"act_type": "relu"}, 
      "inputs": [[317, 0, 0]]
    }, 
    {
      "op": "null", 
      "name": "stage3_unit5_conv3__tree_0_weight", 
      "inputs": []
    }, 
    {
      "op": "Convolution", 
      "name": "stage3_unit5__tree_0_conv3", 
      "attrs": {
        "cudnn_tune": "limited_workspace", 
        "dilate": "(1,1)", 
        "kernel": "(1,1)", 
        "no_bias": "True", 
        "num_filter": "1024", 
        "num_group": "1", 
        "pad": "(0,0)", 
        "stride": "(1,1)", 
        "workspace": "512"
      }, 
      "inputs": [[318, 0, 0], [319, 0, 0]]
    }, 
    {
      "op": "elemwise_add", 
      "name": "__tree_0_plus11", 
      "inputs": [[320, 0, 0], [296, 0, 0]]
    }, 
    {
      "op": "null", 
      "name": "stage3_unit6_bn1__tree_0_gamma", 
      "inputs": []
    }, 
    {
      "op": "null", 
      "name": "stage3_unit6_bn1__tree_0_beta", 
      "inputs": []
    }, 
    {
      "op": "null", 
      "name": "stage3_unit6_bn1_moving__tree_0_mean", 
      "attrs": {
        "__init__": "[\"zero\", {}]", 
        "eps": "2e-05", 
        "fix_gamma": "False", 
        "momentum": "0.9", 
        "use_global_stats": "False"
      }, 
      "inputs": []
    }, 
    {
      "op": "null", 
      "name": "stage3_unit6_bn1_moving__tree_0_var", 
      "attrs": {
        "__init__": "[\"one\", {}]", 
        "eps": "2e-05", 
        "fix_gamma": "False", 
        "momentum": "0.9", 
        "use_global_stats": "False"
      }, 
      "inputs": []
    }, 
    {
      "op": "BatchNorm", 
      "name": "stage3_unit6__tree_0_bn1", 
      "attrs": {
        "eps": "2e-05", 
        "fix_gamma": "False", 
        "momentum": "0.9", 
        "use_global_stats": "False"
      }, 
      "inputs": [[321, 0, 0], [322, 0, 0], [323, 0, 0], [324, 0, 0], [325, 0, 0]]
    }, 
    {
      "op": "Activation", 
      "name": "stage3_unit6__tree_0_relu1", 
      "attrs": {"act_type": "relu"}, 
      "inputs": [[326, 0, 0]]
    }, 
    {
      "op": "null", 
      "name": "stage3_unit6_conv1__tree_0_weight", 
      "inputs": []
    }, 
    {
      "op": "Convolution", 
      "name": "stage3_unit6__tree_0_conv1", 
      "attrs": {
        "cudnn_tune": "limited_workspace", 
        "dilate": "(1,1)", 
        "kernel": "(1,1)", 
        "no_bias": "True", 
        "num_filter": "256", 
        "num_group": "1", 
        "pad": "(0,0)", 
        "stride": "(1,1)", 
        "workspace": "512"
      }, 
      "inputs": [[327, 0, 0], [328, 0, 0]]
    }, 
    {
      "op": "null", 
      "name": "stage3_unit6_bn2__tree_0_gamma", 
      "inputs": []
    }, 
    {
      "op": "null", 
      "name": "stage3_unit6_bn2__tree_0_beta", 
      "inputs": []
    }, 
    {
      "op": "null", 
      "name": "stage3_unit6_bn2_moving__tree_0_mean", 
      "attrs": {
        "__init__": "[\"zero\", {}]", 
        "eps": "2e-05", 
        "fix_gamma": "False", 
        "momentum": "0.9", 
        "use_global_stats": "False"
      }, 
      "inputs": []
    }, 
    {
      "op": "null", 
      "name": "stage3_unit6_bn2_moving__tree_0_var", 
      "attrs": {
        "__init__": "[\"one\", {}]", 
        "eps": "2e-05", 
        "fix_gamma": "False", 
        "momentum": "0.9", 
        "use_global_stats": "False"
      }, 
      "inputs": []
    }, 
    {
      "op": "BatchNorm", 
      "name": "stage3_unit6__tree_0_bn2", 
      "attrs": {
        "eps": "2e-05", 
        "fix_gamma": "False", 
        "momentum": "0.9", 
        "use_global_stats": "False"
      }, 
      "inputs": [[329, 0, 0], [330, 0, 0], [331, 0, 0], [332, 0, 0], [333, 0, 0]]
    }, 
    {
      "op": "Activation", 
      "name": "stage3_unit6__tree_0_relu2", 
      "attrs": {"act_type": "relu"}, 
      "inputs": [[334, 0, 0]]
    }, 
    {
      "op": "null", 
      "name": "stage3_unit6_conv2__tree_0_weight", 
      "inputs": []
    }, 
    {
      "op": "Convolution", 
      "name": "stage3_unit6__tree_0_conv2", 
      "attrs": {
        "cudnn_tune": "limited_workspace", 
        "dilate": "(1,1)", 
        "kernel": "(3,3)", 
        "no_bias": "True", 
        "num_filter": "256", 
        "num_group": "1", 
        "pad": "(1,1)", 
        "stride": "(1,1)", 
        "workspace": "512"
      }, 
      "inputs": [[335, 0, 0], [336, 0, 0]]
    }, 
    {
      "op": "null", 
      "name": "stage3_unit6_bn3__tree_0_gamma", 
      "inputs": []
    }, 
    {
      "op": "null", 
      "name": "stage3_unit6_bn3__tree_0_beta", 
      "inputs": []
    }, 
    {
      "op": "null", 
      "name": "stage3_unit6_bn3_moving__tree_0_mean", 
      "attrs": {
        "__init__": "[\"zero\", {}]", 
        "eps": "2e-05", 
        "fix_gamma": "False", 
        "momentum": "0.9", 
        "use_global_stats": "False"
      }, 
      "inputs": []
    }, 
    {
      "op": "null", 
      "name": "stage3_unit6_bn3_moving__tree_0_var", 
      "attrs": {
        "__init__": "[\"one\", {}]", 
        "eps": "2e-05", 
        "fix_gamma": "False", 
        "momentum": "0.9", 
        "use_global_stats": "False"
      }, 
      "inputs": []
    }, 
    {
      "op": "BatchNorm", 
      "name": "stage3_unit6__tree_0_bn3", 
      "attrs": {
        "eps": "2e-05", 
        "fix_gamma": "False", 
        "momentum": "0.9", 
        "use_global_stats": "False"
      }, 
      "inputs": [[337, 0, 0], [338, 0, 0], [339, 0, 0], [340, 0, 0], [341, 0, 0]]
    }, 
    {
      "op": "Activation", 
      "name": "stage3_unit6__tree_0_relu3", 
      "attrs": {"act_type": "relu"}, 
      "inputs": [[342, 0, 0]]
    }, 
    {
      "op": "null", 
      "name": "stage3_unit6_conv3__tree_0_weight", 
      "inputs": []
    }, 
    {
      "op": "Convolution", 
      "name": "stage3_unit6__tree_0_conv3", 
      "attrs": {
        "cudnn_tune": "limited_workspace", 
        "dilate": "(1,1)", 
        "kernel": "(1,1)", 
        "no_bias": "True", 
        "num_filter": "1024", 
        "num_group": "1", 
        "pad": "(0,0)", 
        "stride": "(1,1)", 
        "workspace": "512"
      }, 
      "inputs": [[343, 0, 0], [344, 0, 0]]
    }, 
    {
      "op": "elemwise_add", 
      "name": "__tree_0_plus12", 
      "inputs": [[345, 0, 0], [321, 0, 0]]
    }, 
    {
      "op": "null", 
      "name": "stage4_unit1_bn1__tree_0_gamma", 
      "inputs": []
    }, 
    {
      "op": "null", 
      "name": "stage4_unit1_bn1__tree_0_beta", 
      "inputs": []
    }, 
    {
      "op": "null", 
      "name": "stage4_unit1_bn1_moving__tree_0_mean", 
      "attrs": {
        "__init__": "[\"zero\", {}]", 
        "eps": "2e-05", 
        "fix_gamma": "False", 
        "momentum": "0.9", 
        "use_global_stats": "False"
      }, 
      "inputs": []
    }, 
    {
      "op": "null", 
      "name": "stage4_unit1_bn1_moving__tree_0_var", 
      "attrs": {
        "__init__": "[\"one\", {}]", 
        "eps": "2e-05", 
        "fix_gamma": "False", 
        "momentum": "0.9", 
        "use_global_stats": "False"
      }, 
      "inputs": []
    }, 
    {
      "op": "BatchNorm", 
      "name": "stage4_unit1__tree_0_bn1", 
      "attrs": {
        "eps": "2e-05", 
        "fix_gamma": "False", 
        "momentum": "0.9", 
        "use_global_stats": "False"
      }, 
      "inputs": [[346, 0, 0], [347, 0, 0], [348, 0, 0], [349, 0, 0], [350, 0, 0]]
    }, 
    {
      "op": "Activation", 
      "name": "stage4_unit1__tree_0_relu1", 
      "attrs": {"act_type": "relu"}, 
      "inputs": [[351, 0, 0]]
    }, 
    {
      "op": "null", 
      "name": "stage4_unit1_conv1__tree_0_weight", 
      "inputs": []
    }, 
    {
      "op": "Convolution", 
      "name": "stage4_unit1__tree_0_conv1", 
      "attrs": {
        "cudnn_tune": "limited_workspace", 
        "dilate": "(1,1)", 
        "kernel": "(1,1)", 
        "no_bias": "True", 
        "num_filter": "512", 
        "num_group": "1", 
        "pad": "(0,0)", 
        "stride": "(1,1)", 
        "workspace": "512"
      }, 
      "inputs": [[352, 0, 0], [353, 0, 0]]
    }, 
    {
      "op": "null", 
      "name": "stage4_unit1_bn2__tree_0_gamma", 
      "inputs": []
    }, 
    {
      "op": "null", 
      "name": "stage4_unit1_bn2__tree_0_beta", 
      "inputs": []
    }, 
    {
      "op": "null", 
      "name": "stage4_unit1_bn2_moving__tree_0_mean", 
      "attrs": {
        "__init__": "[\"zero\", {}]", 
        "eps": "2e-05", 
        "fix_gamma": "False", 
        "momentum": "0.9", 
        "use_global_stats": "False"
      }, 
      "inputs": []
    }, 
    {
      "op": "null", 
      "name": "stage4_unit1_bn2_moving__tree_0_var", 
      "attrs": {
        "__init__": "[\"one\", {}]", 
        "eps": "2e-05", 
        "fix_gamma": "False", 
        "momentum": "0.9", 
        "use_global_stats": "False"
      }, 
      "inputs": []
    }, 
    {
      "op": "BatchNorm", 
      "name": "stage4_unit1__tree_0_bn2", 
      "attrs": {
        "eps": "2e-05", 
        "fix_gamma": "False", 
        "momentum": "0.9", 
        "use_global_stats": "False"
      }, 
      "inputs": [[354, 0, 0], [355, 0, 0], [356, 0, 0], [357, 0, 0], [358, 0, 0]]
    }, 
    {
      "op": "Activation", 
      "name": "stage4_unit1__tree_0_relu2", 
      "attrs": {"act_type": "relu"}, 
      "inputs": [[359, 0, 0]]
    }, 
    {
      "op": "null", 
      "name": "stage4_unit1_conv2__tree_0_weight", 
      "inputs": []
    }, 
    {
      "op": "Convolution", 
      "name": "stage4_unit1__tree_0_conv2", 
      "attrs": {
        "cudnn_tune": "limited_workspace", 
        "dilate": "(1,1)", 
        "kernel": "(3,3)", 
        "no_bias": "True", 
        "num_filter": "512", 
        "num_group": "1", 
        "pad": "(1,1)", 
        "stride": "(2,2)", 
        "workspace": "512"
      }, 
      "inputs": [[360, 0, 0], [361, 0, 0]]
    }, 
    {
      "op": "null", 
      "name": "stage4_unit1_bn3__tree_0_gamma", 
      "inputs": []
    }, 
    {
      "op": "null", 
      "name": "stage4_unit1_bn3__tree_0_beta", 
      "inputs": []
    }, 
    {
      "op": "null", 
      "name": "stage4_unit1_bn3_moving__tree_0_mean", 
      "attrs": {
        "__init__": "[\"zero\", {}]", 
        "eps": "2e-05", 
        "fix_gamma": "False", 
        "momentum": "0.9", 
        "use_global_stats": "False"
      }, 
      "inputs": []
    }, 
    {
      "op": "null", 
      "name": "stage4_unit1_bn3_moving__tree_0_var", 
      "attrs": {
        "__init__": "[\"one\", {}]", 
        "eps": "2e-05", 
        "fix_gamma": "False", 
        "momentum": "0.9", 
        "use_global_stats": "False"
      }, 
      "inputs": []
    }, 
    {
      "op": "BatchNorm", 
      "name": "stage4_unit1__tree_0_bn3", 
      "attrs": {
        "eps": "2e-05", 
        "fix_gamma": "False", 
        "momentum": "0.9", 
        "use_global_stats": "False"
      }, 
      "inputs": [[362, 0, 0], [363, 0, 0], [364, 0, 0], [365, 0, 0], [366, 0, 0]]
    }, 
    {
      "op": "Activation", 
      "name": "stage4_unit1__tree_0_relu3", 
      "attrs": {"act_type": "relu"}, 
      "inputs": [[367, 0, 0]]
    }, 
    {
      "op": "null", 
      "name": "stage4_unit1_conv3__tree_0_weight", 
      "inputs": []
    }, 
    {
      "op": "Convolution", 
      "name": "stage4_unit1__tree_0_conv3", 
      "attrs": {
        "cudnn_tune": "limited_workspace", 
        "dilate": "(1,1)", 
        "kernel": "(1,1)", 
        "no_bias": "True", 
        "num_filter": "2048", 
        "num_group": "1", 
        "pad": "(0,0)", 
        "stride": "(1,1)", 
        "workspace": "512"
      }, 
      "inputs": [[368, 0, 0], [369, 0, 0]]
    }, 
    {
      "op": "null", 
      "name": "stage4_unit1_sc__tree_0_weight", 
      "inputs": []
    }, 
    {
      "op": "Convolution", 
      "name": "stage4_unit1__tree_0_sc", 
      "attrs": {
        "cudnn_tune": "limited_workspace", 
        "dilate": "(1,1)", 
        "kernel": "(1,1)", 
        "no_bias": "True", 
        "num_filter": "2048", 
        "num_group": "1", 
        "pad": "(0,0)", 
        "stride": "(2,2)", 
        "workspace": "512"
      }, 
      "inputs": [[352, 0, 0], [371, 0, 0]]
    }, 
    {
      "op": "elemwise_add", 
      "name": "__tree_0_plus13", 
      "inputs": [[370, 0, 0], [372, 0, 0]]
    }, 
    {
      "op": "null", 
      "name": "stage4_unit2_bn1__tree_0_gamma", 
      "inputs": []
    }, 
    {
      "op": "null", 
      "name": "stage4_unit2_bn1__tree_0_beta", 
      "inputs": []
    }, 
    {
      "op": "null", 
      "name": "stage4_unit2_bn1_moving__tree_0_mean", 
      "attrs": {
        "__init__": "[\"zero\", {}]", 
        "eps": "2e-05", 
        "fix_gamma": "False", 
        "momentum": "0.9", 
        "use_global_stats": "False"
      }, 
      "inputs": []
    }, 
    {
      "op": "null", 
      "name": "stage4_unit2_bn1_moving__tree_0_var", 
      "attrs": {
        "__init__": "[\"one\", {}]", 
        "eps": "2e-05", 
        "fix_gamma": "False", 
        "momentum": "0.9", 
        "use_global_stats": "False"
      }, 
      "inputs": []
    }, 
    {
      "op": "BatchNorm", 
      "name": "stage4_unit2__tree_0_bn1", 
      "attrs": {
        "eps": "2e-05", 
        "fix_gamma": "False", 
        "momentum": "0.9", 
        "use_global_stats": "False"
      }, 
      "inputs": [[373, 0, 0], [374, 0, 0], [375, 0, 0], [376, 0, 0], [377, 0, 0]]
    }, 
    {
      "op": "Activation", 
      "name": "stage4_unit2__tree_0_relu1", 
      "attrs": {"act_type": "relu"}, 
      "inputs": [[378, 0, 0]]
    }, 
    {
      "op": "null", 
      "name": "stage4_unit2_conv1__tree_0_weight", 
      "inputs": []
    }, 
    {
      "op": "Convolution", 
      "name": "stage4_unit2__tree_0_conv1", 
      "attrs": {
        "cudnn_tune": "limited_workspace", 
        "dilate": "(1,1)", 
        "kernel": "(1,1)", 
        "no_bias": "True", 
        "num_filter": "512", 
        "num_group": "1", 
        "pad": "(0,0)", 
        "stride": "(1,1)", 
        "workspace": "512"
      }, 
      "inputs": [[379, 0, 0], [380, 0, 0]]
    }, 
    {
      "op": "null", 
      "name": "stage4_unit2_bn2__tree_0_gamma", 
      "inputs": []
    }, 
    {
      "op": "null", 
      "name": "stage4_unit2_bn2__tree_0_beta", 
      "inputs": []
    }, 
    {
      "op": "null", 
      "name": "stage4_unit2_bn2_moving__tree_0_mean", 
      "attrs": {
        "__init__": "[\"zero\", {}]", 
        "eps": "2e-05", 
        "fix_gamma": "False", 
        "momentum": "0.9", 
        "use_global_stats": "False"
      }, 
      "inputs": []
    }, 
    {
      "op": "null", 
      "name": "stage4_unit2_bn2_moving__tree_0_var", 
      "attrs": {
        "__init__": "[\"one\", {}]", 
        "eps": "2e-05", 
        "fix_gamma": "False", 
        "momentum": "0.9", 
        "use_global_stats": "False"
      }, 
      "inputs": []
    }, 
    {
      "op": "BatchNorm", 
      "name": "stage4_unit2__tree_0_bn2", 
      "attrs": {
        "eps": "2e-05", 
        "fix_gamma": "False", 
        "momentum": "0.9", 
        "use_global_stats": "False"
      }, 
      "inputs": [[381, 0, 0], [382, 0, 0], [383, 0, 0], [384, 0, 0], [385, 0, 0]]
    }, 
    {
      "op": "Activation", 
      "name": "stage4_unit2__tree_0_relu2", 
      "attrs": {"act_type": "relu"}, 
      "inputs": [[386, 0, 0]]
    }, 
    {
      "op": "null", 
      "name": "stage4_unit2_conv2__tree_0_weight", 
      "inputs": []
    }, 
    {
      "op": "Convolution", 
      "name": "stage4_unit2__tree_0_conv2", 
      "attrs": {
        "cudnn_tune": "limited_workspace", 
        "dilate": "(1,1)", 
        "kernel": "(3,3)", 
        "no_bias": "True", 
        "num_filter": "512", 
        "num_group": "1", 
        "pad": "(1,1)", 
        "stride": "(1,1)", 
        "workspace": "512"
      }, 
      "inputs": [[387, 0, 0], [388, 0, 0]]
    }, 
    {
      "op": "null", 
      "name": "stage4_unit2_bn3__tree_0_gamma", 
      "inputs": []
    }, 
    {
      "op": "null", 
      "name": "stage4_unit2_bn3__tree_0_beta", 
      "inputs": []
    }, 
    {
      "op": "null", 
      "name": "stage4_unit2_bn3_moving__tree_0_mean", 
      "attrs": {
        "__init__": "[\"zero\", {}]", 
        "eps": "2e-05", 
        "fix_gamma": "False", 
        "momentum": "0.9", 
        "use_global_stats": "False"
      }, 
      "inputs": []
    }, 
    {
      "op": "null", 
      "name": "stage4_unit2_bn3_moving__tree_0_var", 
      "attrs": {
        "__init__": "[\"one\", {}]", 
        "eps": "2e-05", 
        "fix_gamma": "False", 
        "momentum": "0.9", 
        "use_global_stats": "False"
      }, 
      "inputs": []
    }, 
    {
      "op": "BatchNorm", 
      "name": "stage4_unit2__tree_0_bn3", 
      "attrs": {
        "eps": "2e-05", 
        "fix_gamma": "False", 
        "momentum": "0.9", 
        "use_global_stats": "False"
      }, 
      "inputs": [[389, 0, 0], [390, 0, 0], [391, 0, 0], [392, 0, 0], [393, 0, 0]]
    }, 
    {
      "op": "Activation", 
      "name": "stage4_unit2__tree_0_relu3", 
      "attrs": {"act_type": "relu"}, 
      "inputs": [[394, 0, 0]]
    }, 
    {
      "op": "null", 
      "name": "stage4_unit2_conv3__tree_0_weight", 
      "inputs": []
    }, 
    {
      "op": "Convolution", 
      "name": "stage4_unit2__tree_0_conv3", 
      "attrs": {
        "cudnn_tune": "limited_workspace", 
        "dilate": "(1,1)", 
        "kernel": "(1,1)", 
        "no_bias": "True", 
        "num_filter": "2048", 
        "num_group": "1", 
        "pad": "(0,0)", 
        "stride": "(1,1)", 
        "workspace": "512"
      }, 
      "inputs": [[395, 0, 0], [396, 0, 0]]
    }, 
    {
      "op": "elemwise_add", 
      "name": "__tree_0_plus14", 
      "inputs": [[397, 0, 0], [373, 0, 0]]
    }, 
    {
      "op": "null", 
      "name": "stage4_unit3_bn1__tree_0_gamma", 
      "inputs": []
    }, 
    {
      "op": "null", 
      "name": "stage4_unit3_bn1__tree_0_beta", 
      "inputs": []
    }, 
    {
      "op": "null", 
      "name": "stage4_unit3_bn1_moving__tree_0_mean", 
      "attrs": {
        "__init__": "[\"zero\", {}]", 
        "eps": "2e-05", 
        "fix_gamma": "False", 
        "momentum": "0.9", 
        "use_global_stats": "False"
      }, 
      "inputs": []
    }, 
    {
      "op": "null", 
      "name": "stage4_unit3_bn1_moving__tree_0_var", 
      "attrs": {
        "__init__": "[\"one\", {}]", 
        "eps": "2e-05", 
        "fix_gamma": "False", 
        "momentum": "0.9", 
        "use_global_stats": "False"
      }, 
      "inputs": []
    }, 
    {
      "op": "BatchNorm", 
      "name": "stage4_unit3__tree_0_bn1", 
      "attrs": {
        "eps": "2e-05", 
        "fix_gamma": "False", 
        "momentum": "0.9", 
        "use_global_stats": "False"
      }, 
      "inputs": [[398, 0, 0], [399, 0, 0], [400, 0, 0], [401, 0, 0], [402, 0, 0]]
    }, 
    {
      "op": "Activation", 
      "name": "stage4_unit3__tree_0_relu1", 
      "attrs": {"act_type": "relu"}, 
      "inputs": [[403, 0, 0]]
    }, 
    {
      "op": "null", 
      "name": "stage4_unit3_conv1__tree_0_weight", 
      "inputs": []
    }, 
    {
      "op": "Convolution", 
      "name": "stage4_unit3__tree_0_conv1", 
      "attrs": {
        "cudnn_tune": "limited_workspace", 
        "dilate": "(1,1)", 
        "kernel": "(1,1)", 
        "no_bias": "True", 
        "num_filter": "512", 
        "num_group": "1", 
        "pad": "(0,0)", 
        "stride": "(1,1)", 
        "workspace": "512"
      }, 
      "inputs": [[404, 0, 0], [405, 0, 0]]
    }, 
    {
      "op": "null", 
      "name": "stage4_unit3_bn2__tree_0_gamma", 
      "inputs": []
    }, 
    {
      "op": "null", 
      "name": "stage4_unit3_bn2__tree_0_beta", 
      "inputs": []
    }, 
    {
      "op": "null", 
      "name": "stage4_unit3_bn2_moving__tree_0_mean", 
      "attrs": {
        "__init__": "[\"zero\", {}]", 
        "eps": "2e-05", 
        "fix_gamma": "False", 
        "momentum": "0.9", 
        "use_global_stats": "False"
      }, 
      "inputs": []
    }, 
    {
      "op": "null", 
      "name": "stage4_unit3_bn2_moving__tree_0_var", 
      "attrs": {
        "__init__": "[\"one\", {}]", 
        "eps": "2e-05", 
        "fix_gamma": "False", 
        "momentum": "0.9", 
        "use_global_stats": "False"
      }, 
      "inputs": []
    }, 
    {
      "op": "BatchNorm", 
      "name": "stage4_unit3__tree_0_bn2", 
      "attrs": {
        "eps": "2e-05", 
        "fix_gamma": "False", 
        "momentum": "0.9", 
        "use_global_stats": "False"
      }, 
      "inputs": [[406, 0, 0], [407, 0, 0], [408, 0, 0], [409, 0, 0], [410, 0, 0]]
    }, 
    {
      "op": "Activation", 
      "name": "stage4_unit3__tree_0_relu2", 
      "attrs": {"act_type": "relu"}, 
      "inputs": [[411, 0, 0]]
    }, 
    {
      "op": "null", 
      "name": "stage4_unit3_conv2__tree_0_weight", 
      "inputs": []
    }, 
    {
      "op": "Convolution", 
      "name": "stage4_unit3__tree_0_conv2", 
      "attrs": {
        "cudnn_tune": "limited_workspace", 
        "dilate": "(1,1)", 
        "kernel": "(3,3)", 
        "no_bias": "True", 
        "num_filter": "512", 
        "num_group": "1", 
        "pad": "(1,1)", 
        "stride": "(1,1)", 
        "workspace": "512"
      }, 
      "inputs": [[412, 0, 0], [413, 0, 0]]
    }, 
    {
      "op": "null", 
      "name": "stage4_unit3_bn3__tree_0_gamma", 
      "inputs": []
    }, 
    {
      "op": "null", 
      "name": "stage4_unit3_bn3__tree_0_beta", 
      "inputs": []
    }, 
    {
      "op": "null", 
      "name": "stage4_unit3_bn3_moving__tree_0_mean", 
      "attrs": {
        "__init__": "[\"zero\", {}]", 
        "eps": "2e-05", 
        "fix_gamma": "False", 
        "momentum": "0.9", 
        "use_global_stats": "False"
      }, 
      "inputs": []
    }, 
    {
      "op": "null", 
      "name": "stage4_unit3_bn3_moving__tree_0_var", 
      "attrs": {
        "__init__": "[\"one\", {}]", 
        "eps": "2e-05", 
        "fix_gamma": "False", 
        "momentum": "0.9", 
        "use_global_stats": "False"
      }, 
      "inputs": []
    }, 
    {
      "op": "BatchNorm", 
      "name": "stage4_unit3__tree_0_bn3", 
      "attrs": {
        "eps": "2e-05", 
        "fix_gamma": "False", 
        "momentum": "0.9", 
        "use_global_stats": "False"
      }, 
      "inputs": [[414, 0, 0], [415, 0, 0], [416, 0, 0], [417, 0, 0], [418, 0, 0]]
    }, 
    {
      "op": "Activation", 
      "name": "stage4_unit3__tree_0_relu3", 
      "attrs": {"act_type": "relu"}, 
      "inputs": [[419, 0, 0]]
    }, 
    {
      "op": "null", 
      "name": "stage4_unit3_conv3__tree_0_weight", 
      "inputs": []
    }, 
    {
      "op": "Convolution", 
      "name": "stage4_unit3__tree_0_conv3", 
      "attrs": {
        "cudnn_tune": "limited_workspace", 
        "dilate": "(1,1)", 
        "kernel": "(1,1)", 
        "no_bias": "True", 
        "num_filter": "2048", 
        "num_group": "1", 
        "pad": "(0,0)", 
        "stride": "(1,1)", 
        "workspace": "512"
      }, 
      "inputs": [[420, 0, 0], [421, 0, 0]]
    }, 
    {
      "op": "elemwise_add", 
      "name": "__tree_0_plus15", 
      "inputs": [[422, 0, 0], [398, 0, 0]]
    }, 
    {
      "op": "null", 
      "name": "bn1__tree_0_gamma", 
      "inputs": []
    }, 
    {
      "op": "null", 
      "name": "bn1__tree_0_beta", 
      "inputs": []
    }, 
    {
      "op": "null", 
      "name": "bn1_moving__tree_0_mean", 
      "attrs": {
        "__init__": "[\"zero\", {}]", 
        "eps": "2e-05", 
        "fix_gamma": "False", 
        "momentum": "0.9", 
        "use_global_stats": "False"
      }, 
      "inputs": []
    }, 
    {
      "op": "null", 
      "name": "bn1_moving__tree_0_var", 
      "attrs": {
        "__init__": "[\"one\", {}]", 
        "eps": "2e-05", 
        "fix_gamma": "False", 
        "momentum": "0.9", 
        "use_global_stats": "False"
      }, 
      "inputs": []
    }, 
    {
      "op": "BatchNorm", 
      "name": "_tree_0_bn1", 
      "attrs": {
        "eps": "2e-05", 
        "fix_gamma": "False", 
        "momentum": "0.9", 
        "use_global_stats": "False"
      }, 
      "inputs": [[423, 0, 0], [424, 0, 0], [425, 0, 0], [426, 0, 0], [427, 0, 0]]
    }, 
    {
      "op": "Activation", 
      "name": "_tree_0_relu1", 
      "attrs": {"act_type": "relu"}, 
      "inputs": [[428, 0, 0]]
    }, 
    {
      "op": "Pooling", 
      "name": "_tree_0_pool1", 
      "attrs": {
        "global_pool": "True", 
        "kernel": "(7,7)", 
        "pad": "(0,0)", 
        "pool_type": "avg", 
        "stride": "(1,1)"
      }, 
      "inputs": [[429, 0, 0]]
    }, 
    {
      "op": "Dropout", 
      "name": "_tree_0_dropout0", 
      "attrs": {"p": "0.2"}, 
      "inputs": [[430, 0, 0]]
    }, 
    {
      "op": "null", 
      "name": "convolution0__tree_0_weight", 
      "attrs": {
        "kernel": "(1, 1)", 
        "num_filter": "2048"
      }, 
      "inputs": []
    }, 
    {
      "op": "null", 
      "name": "convolution0__tree_0_bias", 
      "attrs": {
        "kernel": "(1, 1)", 
        "num_filter": "2048"
      }, 
      "inputs": []
    }, 
    {
      "op": "Convolution", 
      "name": "_tree_0_convolution0", 
      "attrs": {
        "kernel": "(1, 1)", 
        "num_filter": "2048"
      }, 
      "inputs": [[119, 0, 0], [432, 0, 0], [433, 0, 0]]
    }, 
    {
      "op": "null", 
      "name": "leakyrelu0__tree_0_gamma", 
      "attrs": {
        "__init__": "[\"Constant\", {\"value\": 0.25}]", 
        "act_type": "prelu"
      }, 
      "inputs": []
    }, 
    {
      "op": "LeakyReLU", 
      "name": "_tree_0_leakyrelu0", 
      "attrs": {"act_type": "prelu"}, 
      "inputs": [[434, 0, 0], [435, 0, 0]]
    }, 
    {
      "op": "Pooling", 
      "name": "_tree_0_pooling0", 
      "attrs": {
        "global_pool": "True", 
        "kernel": "(1, 1)", 
        "pool_type": "avg"
      }, 
      "inputs": [[436, 0, 0]]
    }, 
    {
      "op": "null", 
      "name": "convolution1__tree_0_weight", 
      "attrs": {
        "kernel": "(1, 1)", 
        "num_filter": "2048"
      }, 
      "inputs": []
    }, 
    {
      "op": "null", 
      "name": "convolution1__tree_0_bias", 
      "attrs": {
        "kernel": "(1, 1)", 
        "num_filter": "2048"
      }, 
      "inputs": []
    }, 
    {
      "op": "Convolution", 
      "name": "_tree_0_convolution1", 
      "attrs": {
        "kernel": "(1, 1)", 
        "num_filter": "2048"
      }, 
      "inputs": [[221, 0, 0], [438, 0, 0], [439, 0, 0]]
    }, 
    {
      "op": "null", 
      "name": "leakyrelu1__tree_0_gamma", 
      "attrs": {
        "__init__": "[\"Constant\", {\"value\": 0.25}]", 
        "act_type": "prelu"
      }, 
      "inputs": []
    }, 
    {
      "op": "LeakyReLU", 
      "name": "_tree_0_leakyrelu1", 
      "attrs": {"act_type": "prelu"}, 
      "inputs": [[440, 0, 0], [441, 0, 0]]
    }, 
    {
      "op": "Pooling", 
      "name": "_tree_0_pooling1", 
      "attrs": {
        "global_pool": "True", 
        "kernel": "(1, 1)", 
        "pool_type": "avg"
      }, 
      "inputs": [[442, 0, 0]]
    }, 
    {
      "op": "Pooling", 
      "name": "_tree_0_pooling2", 
      "attrs": {
        "global_pool": "True", 
        "kernel": "(1, 1)", 
        "pool_type": "avg"
      }, 
      "inputs": [[373, 0, 0]]
    }, 
    {
      "op": "Concat", 
      "name": "_tree_0_concat0", 
      "attrs": {"num_args": "4"}, 
      "inputs": [[431, 0, 0], [437, 0, 0], [443, 0, 0], [444, 0, 0]]
    }, 
    {
      "op": "Flatten", 
      "name": "_tree_0_flatten0", 
      "inputs": [[445, 0, 0]]
    }, 
    {
      "op": "Dropout", 
      "name": "_tree_0_dropout1", 
      "attrs": {"p": "0.2"}, 
      "inputs": [[446, 0, 0]]
    }, 
    {
      "op": "null", 
      "name": "fc1_emo__tree_0_weight", 
      "attrs": {"num_hidden": "512"}, 
      "inputs": []
    }, 
    {
      "op": "null", 
      "name": "fc1_emo__tree_0_bias", 
      "attrs": {"num_hidden": "512"}, 
      "inputs": []
    }, 
    {
      "op": "FullyConnected", 
      "name": "fc1__tree_0_emo", 
      "attrs": {"num_hidden": "512"}, 
      "inputs": [[447, 0, 0], [448, 0, 0], [449, 0, 0]]
    }, 
    {
      "op": "null", 
      "name": "leakyrelu2__tree_0_gamma", 
      "attrs": {
        "__init__": "[\"Constant\", {\"value\": 0.25}]", 
        "act_type": "prelu"
      }, 
      "inputs": []
    }, 
    {
      "op": "LeakyReLU", 
      "name": "_tree_0_leakyrelu2", 
      "attrs": {"act_type": "prelu"}, 
      "inputs": [[450, 0, 0], [451, 0, 0]]
    }, 
    {
      "op": "null", 
      "name": "feat_emo__tree_0_weight", 
      "attrs": {"num_hidden": "64"}, 
      "inputs": []
    }, 
    {
      "op": "null", 
      "name": "feat_emo__tree_0_bias", 
      "attrs": {"num_hidden": "64"}, 
      "inputs": []
    }, 
    {
      "op": "FullyConnected", 
      "name": "feat__tree_0_emo", 
      "attrs": {"num_hidden": "64"}, 
      "inputs": [[452, 0, 0], [453, 0, 0], [454, 0, 0]]
    }, 
    {
      "op": "Reshape", 
      "name": "reshape1", 
      "attrs": {"shape": "(6, 40, -1)"}, 
      "inputs": [[455, 0, 0]]
    }, 
    {
      "op": "SliceChannel", 
      "name": "split0", 
      "attrs": {
        "axis": "1", 
        "num_outputs": "40", 
        "squeeze_axis": "1"
      }, 
      "inputs": [[456, 0, 0]]
    }, 
    {
      "op": "null", 
      "name": "rnn_images_l_l_0i2h_weight", 
      "inputs": []
    }, 
    {
      "op": "null", 
      "name": "rnn_images_l_l_0i2h_bias", 
      "inputs": []
    }, 
    {
      "op": "FullyConnected", 
      "name": "rnn_images_l_l_0t0_i2h", 
      "attrs": {"num_hidden": "128"}, 
      "inputs": [[457, 0, 0], [458, 0, 0], [459, 0, 0]]
    }, 
    {
      "op": "_zeros", 
      "name": "rnn_images_l_l_0begin_state_0", 
      "attrs": {
        "__layout__": "NC", 
        "dtype": "float32", 
        "shape": "(0, 128)"
      }, 
      "inputs": []
    }, 
    {
      "op": "null", 
      "name": "rnn_images_l_l_0h2h_weight", 
      "inputs": []
    }, 
    {
      "op": "null", 
      "name": "rnn_images_l_l_0h2h_bias", 
      "inputs": []
    }, 
    {
      "op": "FullyConnected", 
      "name": "rnn_images_l_l_0t0_h2h", 
      "attrs": {"num_hidden": "128"}, 
      "inputs": [[461, 0, 0], [462, 0, 0], [463, 0, 0]]
    }, 
    {
      "op": "elemwise_add", 
      "name": "_plus0", 
      "inputs": [[460, 0, 0], [464, 0, 0]]
    }, 
    {
      "op": "Activation", 
      "name": "rnn_images_l_l_0t0_out", 
      "attrs": {"act_type": "tanh"}, 
      "inputs": [[465, 0, 0]]
    }, 
    {
      "op": "ones_like", 
      "name": "ones_like0", 
      "inputs": [[466, 0, 0]]
    }, 
    {
      "op": "Dropout", 
      "name": "dropout0", 
      "attrs": {"p": "0.2"}, 
      "inputs": [[467, 0, 0]]
    }, 
    {
      "op": "_zeros", 
      "name": "_zeros0", 
      "attrs": {
        "dtype": "float32", 
        "shape": "(0, 0)"
      }, 
      "inputs": []
    }, 
    {
      "op": "where", 
      "name": "where0", 
      "inputs": [[468, 0, 0], [466, 0, 0], [469, 0, 0]]
    }, 
    {
      "op": "null", 
      "name": "rnn_images_r_l_0i2h_weight", 
      "inputs": []
    }, 
    {
      "op": "null", 
      "name": "rnn_images_r_l_0i2h_bias", 
      "inputs": []
    }, 
    {
      "op": "FullyConnected", 
      "name": "rnn_images_r_l_0t39_i2h", 
      "attrs": {"num_hidden": "128"}, 
      "inputs": [[457, 0, 0], [471, 0, 0], [472, 0, 0]]
    }, 
    {
      "op": "FullyConnected", 
      "name": "rnn_images_r_l_0t38_i2h", 
      "attrs": {"num_hidden": "128"}, 
      "inputs": [[457, 1, 0], [471, 0, 0], [472, 0, 0]]
    }, 
    {
      "op": "FullyConnected", 
      "name": "rnn_images_r_l_0t37_i2h", 
      "attrs": {"num_hidden": "128"}, 
      "inputs": [[457, 2, 0], [471, 0, 0], [472, 0, 0]]
    }, 
    {
      "op": "FullyConnected", 
      "name": "rnn_images_r_l_0t36_i2h", 
      "attrs": {"num_hidden": "128"}, 
      "inputs": [[457, 3, 0], [471, 0, 0], [472, 0, 0]]
    }, 
    {
      "op": "FullyConnected", 
      "name": "rnn_images_r_l_0t35_i2h", 
      "attrs": {"num_hidden": "128"}, 
      "inputs": [[457, 4, 0], [471, 0, 0], [472, 0, 0]]
    }, 
    {
      "op": "FullyConnected", 
      "name": "rnn_images_r_l_0t34_i2h", 
      "attrs": {"num_hidden": "128"}, 
      "inputs": [[457, 5, 0], [471, 0, 0], [472, 0, 0]]
    }, 
    {
      "op": "FullyConnected", 
      "name": "rnn_images_r_l_0t33_i2h", 
      "attrs": {"num_hidden": "128"}, 
      "inputs": [[457, 6, 0], [471, 0, 0], [472, 0, 0]]
    }, 
    {
      "op": "FullyConnected", 
      "name": "rnn_images_r_l_0t32_i2h", 
      "attrs": {"num_hidden": "128"}, 
      "inputs": [[457, 7, 0], [471, 0, 0], [472, 0, 0]]
    }, 
    {
      "op": "FullyConnected", 
      "name": "rnn_images_r_l_0t31_i2h", 
      "attrs": {"num_hidden": "128"}, 
      "inputs": [[457, 8, 0], [471, 0, 0], [472, 0, 0]]
    }, 
    {
      "op": "FullyConnected", 
      "name": "rnn_images_r_l_0t30_i2h", 
      "attrs": {"num_hidden": "128"}, 
      "inputs": [[457, 9, 0], [471, 0, 0], [472, 0, 0]]
    }, 
    {
      "op": "FullyConnected", 
      "name": "rnn_images_r_l_0t29_i2h", 
      "attrs": {"num_hidden": "128"}, 
      "inputs": [[457, 10, 0], [471, 0, 0], [472, 0, 0]]
    }, 
    {
      "op": "FullyConnected", 
      "name": "rnn_images_r_l_0t28_i2h", 
      "attrs": {"num_hidden": "128"}, 
      "inputs": [[457, 11, 0], [471, 0, 0], [472, 0, 0]]
    }, 
    {
      "op": "FullyConnected", 
      "name": "rnn_images_r_l_0t27_i2h", 
      "attrs": {"num_hidden": "128"}, 
      "inputs": [[457, 12, 0], [471, 0, 0], [472, 0, 0]]
    }, 
    {
      "op": "FullyConnected", 
      "name": "rnn_images_r_l_0t26_i2h", 
      "attrs": {"num_hidden": "128"}, 
      "inputs": [[457, 13, 0], [471, 0, 0], [472, 0, 0]]
    }, 
    {
      "op": "FullyConnected", 
      "name": "rnn_images_r_l_0t25_i2h", 
      "attrs": {"num_hidden": "128"}, 
      "inputs": [[457, 14, 0], [471, 0, 0], [472, 0, 0]]
    }, 
    {
      "op": "FullyConnected", 
      "name": "rnn_images_r_l_0t24_i2h", 
      "attrs": {"num_hidden": "128"}, 
      "inputs": [[457, 15, 0], [471, 0, 0], [472, 0, 0]]
    }, 
    {
      "op": "FullyConnected", 
      "name": "rnn_images_r_l_0t23_i2h", 
      "attrs": {"num_hidden": "128"}, 
      "inputs": [[457, 16, 0], [471, 0, 0], [472, 0, 0]]
    }, 
    {
      "op": "FullyConnected", 
      "name": "rnn_images_r_l_0t22_i2h", 
      "attrs": {"num_hidden": "128"}, 
      "inputs": [[457, 17, 0], [471, 0, 0], [472, 0, 0]]
    }, 
    {
      "op": "FullyConnected", 
      "name": "rnn_images_r_l_0t21_i2h", 
      "attrs": {"num_hidden": "128"}, 
      "inputs": [[457, 18, 0], [471, 0, 0], [472, 0, 0]]
    }, 
    {
      "op": "FullyConnected", 
      "name": "rnn_images_r_l_0t20_i2h", 
      "attrs": {"num_hidden": "128"}, 
      "inputs": [[457, 19, 0], [471, 0, 0], [472, 0, 0]]
    }, 
    {
      "op": "FullyConnected", 
      "name": "rnn_images_r_l_0t19_i2h", 
      "attrs": {"num_hidden": "128"}, 
      "inputs": [[457, 20, 0], [471, 0, 0], [472, 0, 0]]
    }, 
    {
      "op": "FullyConnected", 
      "name": "rnn_images_r_l_0t18_i2h", 
      "attrs": {"num_hidden": "128"}, 
      "inputs": [[457, 21, 0], [471, 0, 0], [472, 0, 0]]
    }, 
    {
      "op": "FullyConnected", 
      "name": "rnn_images_r_l_0t17_i2h", 
      "attrs": {"num_hidden": "128"}, 
      "inputs": [[457, 22, 0], [471, 0, 0], [472, 0, 0]]
    }, 
    {
      "op": "FullyConnected", 
      "name": "rnn_images_r_l_0t16_i2h", 
      "attrs": {"num_hidden": "128"}, 
      "inputs": [[457, 23, 0], [471, 0, 0], [472, 0, 0]]
    }, 
    {
      "op": "FullyConnected", 
      "name": "rnn_images_r_l_0t15_i2h", 
      "attrs": {"num_hidden": "128"}, 
      "inputs": [[457, 24, 0], [471, 0, 0], [472, 0, 0]]
    }, 
    {
      "op": "FullyConnected", 
      "name": "rnn_images_r_l_0t14_i2h", 
      "attrs": {"num_hidden": "128"}, 
      "inputs": [[457, 25, 0], [471, 0, 0], [472, 0, 0]]
    }, 
    {
      "op": "FullyConnected", 
      "name": "rnn_images_r_l_0t13_i2h", 
      "attrs": {"num_hidden": "128"}, 
      "inputs": [[457, 26, 0], [471, 0, 0], [472, 0, 0]]
    }, 
    {
      "op": "FullyConnected", 
      "name": "rnn_images_r_l_0t12_i2h", 
      "attrs": {"num_hidden": "128"}, 
      "inputs": [[457, 27, 0], [471, 0, 0], [472, 0, 0]]
    }, 
    {
      "op": "FullyConnected", 
      "name": "rnn_images_r_l_0t11_i2h", 
      "attrs": {"num_hidden": "128"}, 
      "inputs": [[457, 28, 0], [471, 0, 0], [472, 0, 0]]
    }, 
    {
      "op": "FullyConnected", 
      "name": "rnn_images_r_l_0t10_i2h", 
      "attrs": {"num_hidden": "128"}, 
      "inputs": [[457, 29, 0], [471, 0, 0], [472, 0, 0]]
    }, 
    {
      "op": "FullyConnected", 
      "name": "rnn_images_r_l_0t9_i2h", 
      "attrs": {"num_hidden": "128"}, 
      "inputs": [[457, 30, 0], [471, 0, 0], [472, 0, 0]]
    }, 
    {
      "op": "FullyConnected", 
      "name": "rnn_images_r_l_0t8_i2h", 
      "attrs": {"num_hidden": "128"}, 
      "inputs": [[457, 31, 0], [471, 0, 0], [472, 0, 0]]
    }, 
    {
      "op": "FullyConnected", 
      "name": "rnn_images_r_l_0t7_i2h", 
      "attrs": {"num_hidden": "128"}, 
      "inputs": [[457, 32, 0], [471, 0, 0], [472, 0, 0]]
    }, 
    {
      "op": "FullyConnected", 
      "name": "rnn_images_r_l_0t6_i2h", 
      "attrs": {"num_hidden": "128"}, 
      "inputs": [[457, 33, 0], [471, 0, 0], [472, 0, 0]]
    }, 
    {
      "op": "FullyConnected", 
      "name": "rnn_images_r_l_0t5_i2h", 
      "attrs": {"num_hidden": "128"}, 
      "inputs": [[457, 34, 0], [471, 0, 0], [472, 0, 0]]
    }, 
    {
      "op": "FullyConnected", 
      "name": "rnn_images_r_l_0t4_i2h", 
      "attrs": {"num_hidden": "128"}, 
      "inputs": [[457, 35, 0], [471, 0, 0], [472, 0, 0]]
    }, 
    {
      "op": "FullyConnected", 
      "name": "rnn_images_r_l_0t3_i2h", 
      "attrs": {"num_hidden": "128"}, 
      "inputs": [[457, 36, 0], [471, 0, 0], [472, 0, 0]]
    }, 
    {
      "op": "FullyConnected", 
      "name": "rnn_images_r_l_0t2_i2h", 
      "attrs": {"num_hidden": "128"}, 
      "inputs": [[457, 37, 0], [471, 0, 0], [472, 0, 0]]
    }, 
    {
      "op": "FullyConnected", 
      "name": "rnn_images_r_l_0t1_i2h", 
      "attrs": {"num_hidden": "128"}, 
      "inputs": [[457, 38, 0], [471, 0, 0], [472, 0, 0]]
    }, 
    {
      "op": "FullyConnected", 
      "name": "rnn_images_r_l_0t0_i2h", 
      "attrs": {"num_hidden": "128"}, 
      "inputs": [[457, 39, 0], [471, 0, 0], [472, 0, 0]]
    }, 
    {
      "op": "_zeros", 
      "name": "rnn_images_r_l_0begin_state_0", 
      "attrs": {
        "__layout__": "NC", 
        "dtype": "float32", 
        "shape": "(0, 128)"
      }, 
      "inputs": []
    }, 
    {
      "op": "null", 
      "name": "rnn_images_r_l_0h2h_weight", 
      "inputs": []
    }, 
    {
      "op": "null", 
      "name": "rnn_images_r_l_0h2h_bias", 
      "inputs": []
    }, 
    {
      "op": "FullyConnected", 
      "name": "rnn_images_r_l_0t0_h2h", 
      "attrs": {"num_hidden": "128"}, 
      "inputs": [[513, 0, 0], [514, 0, 0], [515, 0, 0]]
    }, 
    {
      "op": "elemwise_add", 
      "name": "_plus40", 
      "inputs": [[512, 0, 0], [516, 0, 0]]
    }, 
    {
      "op": "Activation", 
      "name": "rnn_images_r_l_0t0_out", 
      "attrs": {"act_type": "tanh"}, 
      "inputs": [[517, 0, 0]]
    }, 
    {
      "op": "ones_like", 
      "name": "ones_like81", 
      "inputs": [[518, 0, 0]]
    }, 
    {
      "op": "Dropout", 
      "name": "dropout81", 
      "attrs": {"p": "0.2"}, 
      "inputs": [[519, 0, 0]]
    }, 
    {
      "op": "where", 
      "name": "where81", 
      "inputs": [[520, 0, 0], [518, 0, 0], [513, 0, 0]]
    }, 
    {
      "op": "FullyConnected", 
      "name": "rnn_images_r_l_0t1_h2h", 
      "attrs": {"num_hidden": "128"}, 
      "inputs": [[521, 0, 0], [514, 0, 0], [515, 0, 0]]
    }, 
    {
      "op": "elemwise_add", 
      "name": "_plus41", 
      "inputs": [[511, 0, 0], [522, 0, 0]]
    }, 
    {
      "op": "Activation", 
      "name": "rnn_images_r_l_0t1_out", 
      "attrs": {"act_type": "tanh"}, 
      "inputs": [[523, 0, 0]]
    }, 
    {
      "op": "ones_like", 
      "name": "ones_like83", 
      "inputs": [[524, 0, 0]]
    }, 
    {
      "op": "Dropout", 
      "name": "dropout83", 
      "attrs": {"p": "0.2"}, 
      "inputs": [[525, 0, 0]]
    }, 
    {
      "op": "where", 
      "name": "where83", 
      "inputs": [[526, 0, 0], [524, 0, 0], [521, 0, 0]]
    }, 
    {
      "op": "FullyConnected", 
      "name": "rnn_images_r_l_0t2_h2h", 
      "attrs": {"num_hidden": "128"}, 
      "inputs": [[527, 0, 0], [514, 0, 0], [515, 0, 0]]
    }, 
    {
      "op": "elemwise_add", 
      "name": "_plus42", 
      "inputs": [[510, 0, 0], [528, 0, 0]]
    }, 
    {
      "op": "Activation", 
      "name": "rnn_images_r_l_0t2_out", 
      "attrs": {"act_type": "tanh"}, 
      "inputs": [[529, 0, 0]]
    }, 
    {
      "op": "ones_like", 
      "name": "ones_like85", 
      "inputs": [[530, 0, 0]]
    }, 
    {
      "op": "Dropout", 
      "name": "dropout85", 
      "attrs": {"p": "0.2"}, 
      "inputs": [[531, 0, 0]]
    }, 
    {
      "op": "where", 
      "name": "where85", 
      "inputs": [[532, 0, 0], [530, 0, 0], [527, 0, 0]]
    }, 
    {
      "op": "FullyConnected", 
      "name": "rnn_images_r_l_0t3_h2h", 
      "attrs": {"num_hidden": "128"}, 
      "inputs": [[533, 0, 0], [514, 0, 0], [515, 0, 0]]
    }, 
    {
      "op": "elemwise_add", 
      "name": "_plus43", 
      "inputs": [[509, 0, 0], [534, 0, 0]]
    }, 
    {
      "op": "Activation", 
      "name": "rnn_images_r_l_0t3_out", 
      "attrs": {"act_type": "tanh"}, 
      "inputs": [[535, 0, 0]]
    }, 
    {
      "op": "ones_like", 
      "name": "ones_like87", 
      "inputs": [[536, 0, 0]]
    }, 
    {
      "op": "Dropout", 
      "name": "dropout87", 
      "attrs": {"p": "0.2"}, 
      "inputs": [[537, 0, 0]]
    }, 
    {
      "op": "where", 
      "name": "where87", 
      "inputs": [[538, 0, 0], [536, 0, 0], [533, 0, 0]]
    }, 
    {
      "op": "FullyConnected", 
      "name": "rnn_images_r_l_0t4_h2h", 
      "attrs": {"num_hidden": "128"}, 
      "inputs": [[539, 0, 0], [514, 0, 0], [515, 0, 0]]
    }, 
    {
      "op": "elemwise_add", 
      "name": "_plus44", 
      "inputs": [[508, 0, 0], [540, 0, 0]]
    }, 
    {
      "op": "Activation", 
      "name": "rnn_images_r_l_0t4_out", 
      "attrs": {"act_type": "tanh"}, 
      "inputs": [[541, 0, 0]]
    }, 
    {
      "op": "ones_like", 
      "name": "ones_like89", 
      "inputs": [[542, 0, 0]]
    }, 
    {
      "op": "Dropout", 
      "name": "dropout89", 
      "attrs": {"p": "0.2"}, 
      "inputs": [[543, 0, 0]]
    }, 
    {
      "op": "where", 
      "name": "where89", 
      "inputs": [[544, 0, 0], [542, 0, 0], [539, 0, 0]]
    }, 
    {
      "op": "FullyConnected", 
      "name": "rnn_images_r_l_0t5_h2h", 
      "attrs": {"num_hidden": "128"}, 
      "inputs": [[545, 0, 0], [514, 0, 0], [515, 0, 0]]
    }, 
    {
      "op": "elemwise_add", 
      "name": "_plus45", 
      "inputs": [[507, 0, 0], [546, 0, 0]]
    }, 
    {
      "op": "Activation", 
      "name": "rnn_images_r_l_0t5_out", 
      "attrs": {"act_type": "tanh"}, 
      "inputs": [[547, 0, 0]]
    }, 
    {
      "op": "ones_like", 
      "name": "ones_like91", 
      "inputs": [[548, 0, 0]]
    }, 
    {
      "op": "Dropout", 
      "name": "dropout91", 
      "attrs": {"p": "0.2"}, 
      "inputs": [[549, 0, 0]]
    }, 
    {
      "op": "where", 
      "name": "where91", 
      "inputs": [[550, 0, 0], [548, 0, 0], [545, 0, 0]]
    }, 
    {
      "op": "FullyConnected", 
      "name": "rnn_images_r_l_0t6_h2h", 
      "attrs": {"num_hidden": "128"}, 
      "inputs": [[551, 0, 0], [514, 0, 0], [515, 0, 0]]
    }, 
    {
      "op": "elemwise_add", 
      "name": "_plus46", 
      "inputs": [[506, 0, 0], [552, 0, 0]]
    }, 
    {
      "op": "Activation", 
      "name": "rnn_images_r_l_0t6_out", 
      "attrs": {"act_type": "tanh"}, 
      "inputs": [[553, 0, 0]]
    }, 
    {
      "op": "ones_like", 
      "name": "ones_like93", 
      "inputs": [[554, 0, 0]]
    }, 
    {
      "op": "Dropout", 
      "name": "dropout93", 
      "attrs": {"p": "0.2"}, 
      "inputs": [[555, 0, 0]]
    }, 
    {
      "op": "where", 
      "name": "where93", 
      "inputs": [[556, 0, 0], [554, 0, 0], [551, 0, 0]]
    }, 
    {
      "op": "FullyConnected", 
      "name": "rnn_images_r_l_0t7_h2h", 
      "attrs": {"num_hidden": "128"}, 
      "inputs": [[557, 0, 0], [514, 0, 0], [515, 0, 0]]
    }, 
    {
      "op": "elemwise_add", 
      "name": "_plus47", 
      "inputs": [[505, 0, 0], [558, 0, 0]]
    }, 
    {
      "op": "Activation", 
      "name": "rnn_images_r_l_0t7_out", 
      "attrs": {"act_type": "tanh"}, 
      "inputs": [[559, 0, 0]]
    }, 
    {
      "op": "ones_like", 
      "name": "ones_like95", 
      "inputs": [[560, 0, 0]]
    }, 
    {
      "op": "Dropout", 
      "name": "dropout95", 
      "attrs": {"p": "0.2"}, 
      "inputs": [[561, 0, 0]]
    }, 
    {
      "op": "where", 
      "name": "where95", 
      "inputs": [[562, 0, 0], [560, 0, 0], [557, 0, 0]]
    }, 
    {
      "op": "FullyConnected", 
      "name": "rnn_images_r_l_0t8_h2h", 
      "attrs": {"num_hidden": "128"}, 
      "inputs": [[563, 0, 0], [514, 0, 0], [515, 0, 0]]
    }, 
    {
      "op": "elemwise_add", 
      "name": "_plus48", 
      "inputs": [[504, 0, 0], [564, 0, 0]]
    }, 
    {
      "op": "Activation", 
      "name": "rnn_images_r_l_0t8_out", 
      "attrs": {"act_type": "tanh"}, 
      "inputs": [[565, 0, 0]]
    }, 
    {
      "op": "ones_like", 
      "name": "ones_like97", 
      "inputs": [[566, 0, 0]]
    }, 
    {
      "op": "Dropout", 
      "name": "dropout97", 
      "attrs": {"p": "0.2"}, 
      "inputs": [[567, 0, 0]]
    }, 
    {
      "op": "where", 
      "name": "where97", 
      "inputs": [[568, 0, 0], [566, 0, 0], [563, 0, 0]]
    }, 
    {
      "op": "FullyConnected", 
      "name": "rnn_images_r_l_0t9_h2h", 
      "attrs": {"num_hidden": "128"}, 
      "inputs": [[569, 0, 0], [514, 0, 0], [515, 0, 0]]
    }, 
    {
      "op": "elemwise_add", 
      "name": "_plus49", 
      "inputs": [[503, 0, 0], [570, 0, 0]]
    }, 
    {
      "op": "Activation", 
      "name": "rnn_images_r_l_0t9_out", 
      "attrs": {"act_type": "tanh"}, 
      "inputs": [[571, 0, 0]]
    }, 
    {
      "op": "ones_like", 
      "name": "ones_like99", 
      "inputs": [[572, 0, 0]]
    }, 
    {
      "op": "Dropout", 
      "name": "dropout99", 
      "attrs": {"p": "0.2"}, 
      "inputs": [[573, 0, 0]]
    }, 
    {
      "op": "where", 
      "name": "where99", 
      "inputs": [[574, 0, 0], [572, 0, 0], [569, 0, 0]]
    }, 
    {
      "op": "FullyConnected", 
      "name": "rnn_images_r_l_0t10_h2h", 
      "attrs": {"num_hidden": "128"}, 
      "inputs": [[575, 0, 0], [514, 0, 0], [515, 0, 0]]
    }, 
    {
      "op": "elemwise_add", 
      "name": "_plus50", 
      "inputs": [[502, 0, 0], [576, 0, 0]]
    }, 
    {
      "op": "Activation", 
      "name": "rnn_images_r_l_0t10_out", 
      "attrs": {"act_type": "tanh"}, 
      "inputs": [[577, 0, 0]]
    }, 
    {
      "op": "ones_like", 
      "name": "ones_like101", 
      "inputs": [[578, 0, 0]]
    }, 
    {
      "op": "Dropout", 
      "name": "dropout101", 
      "attrs": {"p": "0.2"}, 
      "inputs": [[579, 0, 0]]
    }, 
    {
      "op": "where", 
      "name": "where101", 
      "inputs": [[580, 0, 0], [578, 0, 0], [575, 0, 0]]
    }, 
    {
      "op": "FullyConnected", 
      "name": "rnn_images_r_l_0t11_h2h", 
      "attrs": {"num_hidden": "128"}, 
      "inputs": [[581, 0, 0], [514, 0, 0], [515, 0, 0]]
    }, 
    {
      "op": "elemwise_add", 
      "name": "_plus51", 
      "inputs": [[501, 0, 0], [582, 0, 0]]
    }, 
    {
      "op": "Activation", 
      "name": "rnn_images_r_l_0t11_out", 
      "attrs": {"act_type": "tanh"}, 
      "inputs": [[583, 0, 0]]
    }, 
    {
      "op": "ones_like", 
      "name": "ones_like103", 
      "inputs": [[584, 0, 0]]
    }, 
    {
      "op": "Dropout", 
      "name": "dropout103", 
      "attrs": {"p": "0.2"}, 
      "inputs": [[585, 0, 0]]
    }, 
    {
      "op": "where", 
      "name": "where103", 
      "inputs": [[586, 0, 0], [584, 0, 0], [581, 0, 0]]
    }, 
    {
      "op": "FullyConnected", 
      "name": "rnn_images_r_l_0t12_h2h", 
      "attrs": {"num_hidden": "128"}, 
      "inputs": [[587, 0, 0], [514, 0, 0], [515, 0, 0]]
    }, 
    {
      "op": "elemwise_add", 
      "name": "_plus52", 
      "inputs": [[500, 0, 0], [588, 0, 0]]
    }, 
    {
      "op": "Activation", 
      "name": "rnn_images_r_l_0t12_out", 
      "attrs": {"act_type": "tanh"}, 
      "inputs": [[589, 0, 0]]
    }, 
    {
      "op": "ones_like", 
      "name": "ones_like105", 
      "inputs": [[590, 0, 0]]
    }, 
    {
      "op": "Dropout", 
      "name": "dropout105", 
      "attrs": {"p": "0.2"}, 
      "inputs": [[591, 0, 0]]
    }, 
    {
      "op": "where", 
      "name": "where105", 
      "inputs": [[592, 0, 0], [590, 0, 0], [587, 0, 0]]
    }, 
    {
      "op": "FullyConnected", 
      "name": "rnn_images_r_l_0t13_h2h", 
      "attrs": {"num_hidden": "128"}, 
      "inputs": [[593, 0, 0], [514, 0, 0], [515, 0, 0]]
    }, 
    {
      "op": "elemwise_add", 
      "name": "_plus53", 
      "inputs": [[499, 0, 0], [594, 0, 0]]
    }, 
    {
      "op": "Activation", 
      "name": "rnn_images_r_l_0t13_out", 
      "attrs": {"act_type": "tanh"}, 
      "inputs": [[595, 0, 0]]
    }, 
    {
      "op": "ones_like", 
      "name": "ones_like107", 
      "inputs": [[596, 0, 0]]
    }, 
    {
      "op": "Dropout", 
      "name": "dropout107", 
      "attrs": {"p": "0.2"}, 
      "inputs": [[597, 0, 0]]
    }, 
    {
      "op": "where", 
      "name": "where107", 
      "inputs": [[598, 0, 0], [596, 0, 0], [593, 0, 0]]
    }, 
    {
      "op": "FullyConnected", 
      "name": "rnn_images_r_l_0t14_h2h", 
      "attrs": {"num_hidden": "128"}, 
      "inputs": [[599, 0, 0], [514, 0, 0], [515, 0, 0]]
    }, 
    {
      "op": "elemwise_add", 
      "name": "_plus54", 
      "inputs": [[498, 0, 0], [600, 0, 0]]
    }, 
    {
      "op": "Activation", 
      "name": "rnn_images_r_l_0t14_out", 
      "attrs": {"act_type": "tanh"}, 
      "inputs": [[601, 0, 0]]
    }, 
    {
      "op": "ones_like", 
      "name": "ones_like109", 
      "inputs": [[602, 0, 0]]
    }, 
    {
      "op": "Dropout", 
      "name": "dropout109", 
      "attrs": {"p": "0.2"}, 
      "inputs": [[603, 0, 0]]
    }, 
    {
      "op": "where", 
      "name": "where109", 
      "inputs": [[604, 0, 0], [602, 0, 0], [599, 0, 0]]
    }, 
    {
      "op": "FullyConnected", 
      "name": "rnn_images_r_l_0t15_h2h", 
      "attrs": {"num_hidden": "128"}, 
      "inputs": [[605, 0, 0], [514, 0, 0], [515, 0, 0]]
    }, 
    {
      "op": "elemwise_add", 
      "name": "_plus55", 
      "inputs": [[497, 0, 0], [606, 0, 0]]
    }, 
    {
      "op": "Activation", 
      "name": "rnn_images_r_l_0t15_out", 
      "attrs": {"act_type": "tanh"}, 
      "inputs": [[607, 0, 0]]
    }, 
    {
      "op": "ones_like", 
      "name": "ones_like111", 
      "inputs": [[608, 0, 0]]
    }, 
    {
      "op": "Dropout", 
      "name": "dropout111", 
      "attrs": {"p": "0.2"}, 
      "inputs": [[609, 0, 0]]
    }, 
    {
      "op": "where", 
      "name": "where111", 
      "inputs": [[610, 0, 0], [608, 0, 0], [605, 0, 0]]
    }, 
    {
      "op": "FullyConnected", 
      "name": "rnn_images_r_l_0t16_h2h", 
      "attrs": {"num_hidden": "128"}, 
      "inputs": [[611, 0, 0], [514, 0, 0], [515, 0, 0]]
    }, 
    {
      "op": "elemwise_add", 
      "name": "_plus56", 
      "inputs": [[496, 0, 0], [612, 0, 0]]
    }, 
    {
      "op": "Activation", 
      "name": "rnn_images_r_l_0t16_out", 
      "attrs": {"act_type": "tanh"}, 
      "inputs": [[613, 0, 0]]
    }, 
    {
      "op": "ones_like", 
      "name": "ones_like113", 
      "inputs": [[614, 0, 0]]
    }, 
    {
      "op": "Dropout", 
      "name": "dropout113", 
      "attrs": {"p": "0.2"}, 
      "inputs": [[615, 0, 0]]
    }, 
    {
      "op": "where", 
      "name": "where113", 
      "inputs": [[616, 0, 0], [614, 0, 0], [611, 0, 0]]
    }, 
    {
      "op": "FullyConnected", 
      "name": "rnn_images_r_l_0t17_h2h", 
      "attrs": {"num_hidden": "128"}, 
      "inputs": [[617, 0, 0], [514, 0, 0], [515, 0, 0]]
    }, 
    {
      "op": "elemwise_add", 
      "name": "_plus57", 
      "inputs": [[495, 0, 0], [618, 0, 0]]
    }, 
    {
      "op": "Activation", 
      "name": "rnn_images_r_l_0t17_out", 
      "attrs": {"act_type": "tanh"}, 
      "inputs": [[619, 0, 0]]
    }, 
    {
      "op": "ones_like", 
      "name": "ones_like115", 
      "inputs": [[620, 0, 0]]
    }, 
    {
      "op": "Dropout", 
      "name": "dropout115", 
      "attrs": {"p": "0.2"}, 
      "inputs": [[621, 0, 0]]
    }, 
    {
      "op": "where", 
      "name": "where115", 
      "inputs": [[622, 0, 0], [620, 0, 0], [617, 0, 0]]
    }, 
    {
      "op": "FullyConnected", 
      "name": "rnn_images_r_l_0t18_h2h", 
      "attrs": {"num_hidden": "128"}, 
      "inputs": [[623, 0, 0], [514, 0, 0], [515, 0, 0]]
    }, 
    {
      "op": "elemwise_add", 
      "name": "_plus58", 
      "inputs": [[494, 0, 0], [624, 0, 0]]
    }, 
    {
      "op": "Activation", 
      "name": "rnn_images_r_l_0t18_out", 
      "attrs": {"act_type": "tanh"}, 
      "inputs": [[625, 0, 0]]
    }, 
    {
      "op": "ones_like", 
      "name": "ones_like117", 
      "inputs": [[626, 0, 0]]
    }, 
    {
      "op": "Dropout", 
      "name": "dropout117", 
      "attrs": {"p": "0.2"}, 
      "inputs": [[627, 0, 0]]
    }, 
    {
      "op": "where", 
      "name": "where117", 
      "inputs": [[628, 0, 0], [626, 0, 0], [623, 0, 0]]
    }, 
    {
      "op": "FullyConnected", 
      "name": "rnn_images_r_l_0t19_h2h", 
      "attrs": {"num_hidden": "128"}, 
      "inputs": [[629, 0, 0], [514, 0, 0], [515, 0, 0]]
    }, 
    {
      "op": "elemwise_add", 
      "name": "_plus59", 
      "inputs": [[493, 0, 0], [630, 0, 0]]
    }, 
    {
      "op": "Activation", 
      "name": "rnn_images_r_l_0t19_out", 
      "attrs": {"act_type": "tanh"}, 
      "inputs": [[631, 0, 0]]
    }, 
    {
      "op": "ones_like", 
      "name": "ones_like119", 
      "inputs": [[632, 0, 0]]
    }, 
    {
      "op": "Dropout", 
      "name": "dropout119", 
      "attrs": {"p": "0.2"}, 
      "inputs": [[633, 0, 0]]
    }, 
    {
      "op": "where", 
      "name": "where119", 
      "inputs": [[634, 0, 0], [632, 0, 0], [629, 0, 0]]
    }, 
    {
      "op": "FullyConnected", 
      "name": "rnn_images_r_l_0t20_h2h", 
      "attrs": {"num_hidden": "128"}, 
      "inputs": [[635, 0, 0], [514, 0, 0], [515, 0, 0]]
    }, 
    {
      "op": "elemwise_add", 
      "name": "_plus60", 
      "inputs": [[492, 0, 0], [636, 0, 0]]
    }, 
    {
      "op": "Activation", 
      "name": "rnn_images_r_l_0t20_out", 
      "attrs": {"act_type": "tanh"}, 
      "inputs": [[637, 0, 0]]
    }, 
    {
      "op": "ones_like", 
      "name": "ones_like121", 
      "inputs": [[638, 0, 0]]
    }, 
    {
      "op": "Dropout", 
      "name": "dropout121", 
      "attrs": {"p": "0.2"}, 
      "inputs": [[639, 0, 0]]
    }, 
    {
      "op": "where", 
      "name": "where121", 
      "inputs": [[640, 0, 0], [638, 0, 0], [635, 0, 0]]
    }, 
    {
      "op": "FullyConnected", 
      "name": "rnn_images_r_l_0t21_h2h", 
      "attrs": {"num_hidden": "128"}, 
      "inputs": [[641, 0, 0], [514, 0, 0], [515, 0, 0]]
    }, 
    {
      "op": "elemwise_add", 
      "name": "_plus61", 
      "inputs": [[491, 0, 0], [642, 0, 0]]
    }, 
    {
      "op": "Activation", 
      "name": "rnn_images_r_l_0t21_out", 
      "attrs": {"act_type": "tanh"}, 
      "inputs": [[643, 0, 0]]
    }, 
    {
      "op": "ones_like", 
      "name": "ones_like123", 
      "inputs": [[644, 0, 0]]
    }, 
    {
      "op": "Dropout", 
      "name": "dropout123", 
      "attrs": {"p": "0.2"}, 
      "inputs": [[645, 0, 0]]
    }, 
    {
      "op": "where", 
      "name": "where123", 
      "inputs": [[646, 0, 0], [644, 0, 0], [641, 0, 0]]
    }, 
    {
      "op": "FullyConnected", 
      "name": "rnn_images_r_l_0t22_h2h", 
      "attrs": {"num_hidden": "128"}, 
      "inputs": [[647, 0, 0], [514, 0, 0], [515, 0, 0]]
    }, 
    {
      "op": "elemwise_add", 
      "name": "_plus62", 
      "inputs": [[490, 0, 0], [648, 0, 0]]
    }, 
    {
      "op": "Activation", 
      "name": "rnn_images_r_l_0t22_out", 
      "attrs": {"act_type": "tanh"}, 
      "inputs": [[649, 0, 0]]
    }, 
    {
      "op": "ones_like", 
      "name": "ones_like125", 
      "inputs": [[650, 0, 0]]
    }, 
    {
      "op": "Dropout", 
      "name": "dropout125", 
      "attrs": {"p": "0.2"}, 
      "inputs": [[651, 0, 0]]
    }, 
    {
      "op": "where", 
      "name": "where125", 
      "inputs": [[652, 0, 0], [650, 0, 0], [647, 0, 0]]
    }, 
    {
      "op": "FullyConnected", 
      "name": "rnn_images_r_l_0t23_h2h", 
      "attrs": {"num_hidden": "128"}, 
      "inputs": [[653, 0, 0], [514, 0, 0], [515, 0, 0]]
    }, 
    {
      "op": "elemwise_add", 
      "name": "_plus63", 
      "inputs": [[489, 0, 0], [654, 0, 0]]
    }, 
    {
      "op": "Activation", 
      "name": "rnn_images_r_l_0t23_out", 
      "attrs": {"act_type": "tanh"}, 
      "inputs": [[655, 0, 0]]
    }, 
    {
      "op": "ones_like", 
      "name": "ones_like127", 
      "inputs": [[656, 0, 0]]
    }, 
    {
      "op": "Dropout", 
      "name": "dropout127", 
      "attrs": {"p": "0.2"}, 
      "inputs": [[657, 0, 0]]
    }, 
    {
      "op": "where", 
      "name": "where127", 
      "inputs": [[658, 0, 0], [656, 0, 0], [653, 0, 0]]
    }, 
    {
      "op": "FullyConnected", 
      "name": "rnn_images_r_l_0t24_h2h", 
      "attrs": {"num_hidden": "128"}, 
      "inputs": [[659, 0, 0], [514, 0, 0], [515, 0, 0]]
    }, 
    {
      "op": "elemwise_add", 
      "name": "_plus64", 
      "inputs": [[488, 0, 0], [660, 0, 0]]
    }, 
    {
      "op": "Activation", 
      "name": "rnn_images_r_l_0t24_out", 
      "attrs": {"act_type": "tanh"}, 
      "inputs": [[661, 0, 0]]
    }, 
    {
      "op": "ones_like", 
      "name": "ones_like129", 
      "inputs": [[662, 0, 0]]
    }, 
    {
      "op": "Dropout", 
      "name": "dropout129", 
      "attrs": {"p": "0.2"}, 
      "inputs": [[663, 0, 0]]
    }, 
    {
      "op": "where", 
      "name": "where129", 
      "inputs": [[664, 0, 0], [662, 0, 0], [659, 0, 0]]
    }, 
    {
      "op": "FullyConnected", 
      "name": "rnn_images_r_l_0t25_h2h", 
      "attrs": {"num_hidden": "128"}, 
      "inputs": [[665, 0, 0], [514, 0, 0], [515, 0, 0]]
    }, 
    {
      "op": "elemwise_add", 
      "name": "_plus65", 
      "inputs": [[487, 0, 0], [666, 0, 0]]
    }, 
    {
      "op": "Activation", 
      "name": "rnn_images_r_l_0t25_out", 
      "attrs": {"act_type": "tanh"}, 
      "inputs": [[667, 0, 0]]
    }, 
    {
      "op": "ones_like", 
      "name": "ones_like131", 
      "inputs": [[668, 0, 0]]
    }, 
    {
      "op": "Dropout", 
      "name": "dropout131", 
      "attrs": {"p": "0.2"}, 
      "inputs": [[669, 0, 0]]
    }, 
    {
      "op": "where", 
      "name": "where131", 
      "inputs": [[670, 0, 0], [668, 0, 0], [665, 0, 0]]
    }, 
    {
      "op": "FullyConnected", 
      "name": "rnn_images_r_l_0t26_h2h", 
      "attrs": {"num_hidden": "128"}, 
      "inputs": [[671, 0, 0], [514, 0, 0], [515, 0, 0]]
    }, 
    {
      "op": "elemwise_add", 
      "name": "_plus66", 
      "inputs": [[486, 0, 0], [672, 0, 0]]
    }, 
    {
      "op": "Activation", 
      "name": "rnn_images_r_l_0t26_out", 
      "attrs": {"act_type": "tanh"}, 
      "inputs": [[673, 0, 0]]
    }, 
    {
      "op": "ones_like", 
      "name": "ones_like133", 
      "inputs": [[674, 0, 0]]
    }, 
    {
      "op": "Dropout", 
      "name": "dropout133", 
      "attrs": {"p": "0.2"}, 
      "inputs": [[675, 0, 0]]
    }, 
    {
      "op": "where", 
      "name": "where133", 
      "inputs": [[676, 0, 0], [674, 0, 0], [671, 0, 0]]
    }, 
    {
      "op": "FullyConnected", 
      "name": "rnn_images_r_l_0t27_h2h", 
      "attrs": {"num_hidden": "128"}, 
      "inputs": [[677, 0, 0], [514, 0, 0], [515, 0, 0]]
    }, 
    {
      "op": "elemwise_add", 
      "name": "_plus67", 
      "inputs": [[485, 0, 0], [678, 0, 0]]
    }, 
    {
      "op": "Activation", 
      "name": "rnn_images_r_l_0t27_out", 
      "attrs": {"act_type": "tanh"}, 
      "inputs": [[679, 0, 0]]
    }, 
    {
      "op": "ones_like", 
      "name": "ones_like135", 
      "inputs": [[680, 0, 0]]
    }, 
    {
      "op": "Dropout", 
      "name": "dropout135", 
      "attrs": {"p": "0.2"}, 
      "inputs": [[681, 0, 0]]
    }, 
    {
      "op": "where", 
      "name": "where135", 
      "inputs": [[682, 0, 0], [680, 0, 0], [677, 0, 0]]
    }, 
    {
      "op": "FullyConnected", 
      "name": "rnn_images_r_l_0t28_h2h", 
      "attrs": {"num_hidden": "128"}, 
      "inputs": [[683, 0, 0], [514, 0, 0], [515, 0, 0]]
    }, 
    {
      "op": "elemwise_add", 
      "name": "_plus68", 
      "inputs": [[484, 0, 0], [684, 0, 0]]
    }, 
    {
      "op": "Activation", 
      "name": "rnn_images_r_l_0t28_out", 
      "attrs": {"act_type": "tanh"}, 
      "inputs": [[685, 0, 0]]
    }, 
    {
      "op": "ones_like", 
      "name": "ones_like137", 
      "inputs": [[686, 0, 0]]
    }, 
    {
      "op": "Dropout", 
      "name": "dropout137", 
      "attrs": {"p": "0.2"}, 
      "inputs": [[687, 0, 0]]
    }, 
    {
      "op": "where", 
      "name": "where137", 
      "inputs": [[688, 0, 0], [686, 0, 0], [683, 0, 0]]
    }, 
    {
      "op": "FullyConnected", 
      "name": "rnn_images_r_l_0t29_h2h", 
      "attrs": {"num_hidden": "128"}, 
      "inputs": [[689, 0, 0], [514, 0, 0], [515, 0, 0]]
    }, 
    {
      "op": "elemwise_add", 
      "name": "_plus69", 
      "inputs": [[483, 0, 0], [690, 0, 0]]
    }, 
    {
      "op": "Activation", 
      "name": "rnn_images_r_l_0t29_out", 
      "attrs": {"act_type": "tanh"}, 
      "inputs": [[691, 0, 0]]
    }, 
    {
      "op": "ones_like", 
      "name": "ones_like139", 
      "inputs": [[692, 0, 0]]
    }, 
    {
      "op": "Dropout", 
      "name": "dropout139", 
      "attrs": {"p": "0.2"}, 
      "inputs": [[693, 0, 0]]
    }, 
    {
      "op": "where", 
      "name": "where139", 
      "inputs": [[694, 0, 0], [692, 0, 0], [689, 0, 0]]
    }, 
    {
      "op": "FullyConnected", 
      "name": "rnn_images_r_l_0t30_h2h", 
      "attrs": {"num_hidden": "128"}, 
      "inputs": [[695, 0, 0], [514, 0, 0], [515, 0, 0]]
    }, 
    {
      "op": "elemwise_add", 
      "name": "_plus70", 
      "inputs": [[482, 0, 0], [696, 0, 0]]
    }, 
    {
      "op": "Activation", 
      "name": "rnn_images_r_l_0t30_out", 
      "attrs": {"act_type": "tanh"}, 
      "inputs": [[697, 0, 0]]
    }, 
    {
      "op": "ones_like", 
      "name": "ones_like141", 
      "inputs": [[698, 0, 0]]
    }, 
    {
      "op": "Dropout", 
      "name": "dropout141", 
      "attrs": {"p": "0.2"}, 
      "inputs": [[699, 0, 0]]
    }, 
    {
      "op": "where", 
      "name": "where141", 
      "inputs": [[700, 0, 0], [698, 0, 0], [695, 0, 0]]
    }, 
    {
      "op": "FullyConnected", 
      "name": "rnn_images_r_l_0t31_h2h", 
      "attrs": {"num_hidden": "128"}, 
      "inputs": [[701, 0, 0], [514, 0, 0], [515, 0, 0]]
    }, 
    {
      "op": "elemwise_add", 
      "name": "_plus71", 
      "inputs": [[481, 0, 0], [702, 0, 0]]
    }, 
    {
      "op": "Activation", 
      "name": "rnn_images_r_l_0t31_out", 
      "attrs": {"act_type": "tanh"}, 
      "inputs": [[703, 0, 0]]
    }, 
    {
      "op": "ones_like", 
      "name": "ones_like143", 
      "inputs": [[704, 0, 0]]
    }, 
    {
      "op": "Dropout", 
      "name": "dropout143", 
      "attrs": {"p": "0.2"}, 
      "inputs": [[705, 0, 0]]
    }, 
    {
      "op": "where", 
      "name": "where143", 
      "inputs": [[706, 0, 0], [704, 0, 0], [701, 0, 0]]
    }, 
    {
      "op": "FullyConnected", 
      "name": "rnn_images_r_l_0t32_h2h", 
      "attrs": {"num_hidden": "128"}, 
      "inputs": [[707, 0, 0], [514, 0, 0], [515, 0, 0]]
    }, 
    {
      "op": "elemwise_add", 
      "name": "_plus72", 
      "inputs": [[480, 0, 0], [708, 0, 0]]
    }, 
    {
      "op": "Activation", 
      "name": "rnn_images_r_l_0t32_out", 
      "attrs": {"act_type": "tanh"}, 
      "inputs": [[709, 0, 0]]
    }, 
    {
      "op": "ones_like", 
      "name": "ones_like145", 
      "inputs": [[710, 0, 0]]
    }, 
    {
      "op": "Dropout", 
      "name": "dropout145", 
      "attrs": {"p": "0.2"}, 
      "inputs": [[711, 0, 0]]
    }, 
    {
      "op": "where", 
      "name": "where145", 
      "inputs": [[712, 0, 0], [710, 0, 0], [707, 0, 0]]
    }, 
    {
      "op": "FullyConnected", 
      "name": "rnn_images_r_l_0t33_h2h", 
      "attrs": {"num_hidden": "128"}, 
      "inputs": [[713, 0, 0], [514, 0, 0], [515, 0, 0]]
    }, 
    {
      "op": "elemwise_add", 
      "name": "_plus73", 
      "inputs": [[479, 0, 0], [714, 0, 0]]
    }, 
    {
      "op": "Activation", 
      "name": "rnn_images_r_l_0t33_out", 
      "attrs": {"act_type": "tanh"}, 
      "inputs": [[715, 0, 0]]
    }, 
    {
      "op": "ones_like", 
      "name": "ones_like147", 
      "inputs": [[716, 0, 0]]
    }, 
    {
      "op": "Dropout", 
      "name": "dropout147", 
      "attrs": {"p": "0.2"}, 
      "inputs": [[717, 0, 0]]
    }, 
    {
      "op": "where", 
      "name": "where147", 
      "inputs": [[718, 0, 0], [716, 0, 0], [713, 0, 0]]
    }, 
    {
      "op": "FullyConnected", 
      "name": "rnn_images_r_l_0t34_h2h", 
      "attrs": {"num_hidden": "128"}, 
      "inputs": [[719, 0, 0], [514, 0, 0], [515, 0, 0]]
    }, 
    {
      "op": "elemwise_add", 
      "name": "_plus74", 
      "inputs": [[478, 0, 0], [720, 0, 0]]
    }, 
    {
      "op": "Activation", 
      "name": "rnn_images_r_l_0t34_out", 
      "attrs": {"act_type": "tanh"}, 
      "inputs": [[721, 0, 0]]
    }, 
    {
      "op": "ones_like", 
      "name": "ones_like149", 
      "inputs": [[722, 0, 0]]
    }, 
    {
      "op": "Dropout", 
      "name": "dropout149", 
      "attrs": {"p": "0.2"}, 
      "inputs": [[723, 0, 0]]
    }, 
    {
      "op": "where", 
      "name": "where149", 
      "inputs": [[724, 0, 0], [722, 0, 0], [719, 0, 0]]
    }, 
    {
      "op": "FullyConnected", 
      "name": "rnn_images_r_l_0t35_h2h", 
      "attrs": {"num_hidden": "128"}, 
      "inputs": [[725, 0, 0], [514, 0, 0], [515, 0, 0]]
    }, 
    {
      "op": "elemwise_add", 
      "name": "_plus75", 
      "inputs": [[477, 0, 0], [726, 0, 0]]
    }, 
    {
      "op": "Activation", 
      "name": "rnn_images_r_l_0t35_out", 
      "attrs": {"act_type": "tanh"}, 
      "inputs": [[727, 0, 0]]
    }, 
    {
      "op": "ones_like", 
      "name": "ones_like151", 
      "inputs": [[728, 0, 0]]
    }, 
    {
      "op": "Dropout", 
      "name": "dropout151", 
      "attrs": {"p": "0.2"}, 
      "inputs": [[729, 0, 0]]
    }, 
    {
      "op": "where", 
      "name": "where151", 
      "inputs": [[730, 0, 0], [728, 0, 0], [725, 0, 0]]
    }, 
    {
      "op": "FullyConnected", 
      "name": "rnn_images_r_l_0t36_h2h", 
      "attrs": {"num_hidden": "128"}, 
      "inputs": [[731, 0, 0], [514, 0, 0], [515, 0, 0]]
    }, 
    {
      "op": "elemwise_add", 
      "name": "_plus76", 
      "inputs": [[476, 0, 0], [732, 0, 0]]
    }, 
    {
      "op": "Activation", 
      "name": "rnn_images_r_l_0t36_out", 
      "attrs": {"act_type": "tanh"}, 
      "inputs": [[733, 0, 0]]
    }, 
    {
      "op": "ones_like", 
      "name": "ones_like153", 
      "inputs": [[734, 0, 0]]
    }, 
    {
      "op": "Dropout", 
      "name": "dropout153", 
      "attrs": {"p": "0.2"}, 
      "inputs": [[735, 0, 0]]
    }, 
    {
      "op": "where", 
      "name": "where153", 
      "inputs": [[736, 0, 0], [734, 0, 0], [731, 0, 0]]
    }, 
    {
      "op": "FullyConnected", 
      "name": "rnn_images_r_l_0t37_h2h", 
      "attrs": {"num_hidden": "128"}, 
      "inputs": [[737, 0, 0], [514, 0, 0], [515, 0, 0]]
    }, 
    {
      "op": "elemwise_add", 
      "name": "_plus77", 
      "inputs": [[475, 0, 0], [738, 0, 0]]
    }, 
    {
      "op": "Activation", 
      "name": "rnn_images_r_l_0t37_out", 
      "attrs": {"act_type": "tanh"}, 
      "inputs": [[739, 0, 0]]
    }, 
    {
      "op": "ones_like", 
      "name": "ones_like155", 
      "inputs": [[740, 0, 0]]
    }, 
    {
      "op": "Dropout", 
      "name": "dropout155", 
      "attrs": {"p": "0.2"}, 
      "inputs": [[741, 0, 0]]
    }, 
    {
      "op": "where", 
      "name": "where155", 
      "inputs": [[742, 0, 0], [740, 0, 0], [737, 0, 0]]
    }, 
    {
      "op": "FullyConnected", 
      "name": "rnn_images_r_l_0t38_h2h", 
      "attrs": {"num_hidden": "128"}, 
      "inputs": [[743, 0, 0], [514, 0, 0], [515, 0, 0]]
    }, 
    {
      "op": "elemwise_add", 
      "name": "_plus78", 
      "inputs": [[474, 0, 0], [744, 0, 0]]
    }, 
    {
      "op": "Activation", 
      "name": "rnn_images_r_l_0t38_out", 
      "attrs": {"act_type": "tanh"}, 
      "inputs": [[745, 0, 0]]
    }, 
    {
      "op": "ones_like", 
      "name": "ones_like157", 
      "inputs": [[746, 0, 0]]
    }, 
    {
      "op": "Dropout", 
      "name": "dropout157", 
      "attrs": {"p": "0.2"}, 
      "inputs": [[747, 0, 0]]
    }, 
    {
      "op": "where", 
      "name": "where157", 
      "inputs": [[748, 0, 0], [746, 0, 0], [743, 0, 0]]
    }, 
    {
      "op": "FullyConnected", 
      "name": "rnn_images_r_l_0t39_h2h", 
      "attrs": {"num_hidden": "128"}, 
      "inputs": [[749, 0, 0], [514, 0, 0], [515, 0, 0]]
    }, 
    {
      "op": "elemwise_add", 
      "name": "_plus79", 
      "inputs": [[473, 0, 0], [750, 0, 0]]
    }, 
    {
      "op": "Activation", 
      "name": "rnn_images_r_l_0t39_out", 
      "attrs": {"act_type": "tanh"}, 
      "inputs": [[751, 0, 0]]
    }, 
    {
      "op": "ones_like", 
      "name": "ones_like158", 
      "inputs": [[752, 0, 0]]
    }, 
    {
      "op": "Dropout", 
      "name": "dropout158", 
      "attrs": {"p": "0.2"}, 
      "inputs": [[753, 0, 0]]
    }, 
    {
      "op": "ones_like", 
      "name": "ones_like156", 
      "inputs": [[746, 0, 0]]
    }, 
    {
      "op": "Dropout", 
      "name": "dropout156", 
      "attrs": {"p": "0.2"}, 
      "inputs": [[755, 0, 0]]
    }, 
    {
      "op": "ones_like", 
      "name": "ones_like154", 
      "inputs": [[740, 0, 0]]
    }, 
    {
      "op": "Dropout", 
      "name": "dropout154", 
      "attrs": {"p": "0.2"}, 
      "inputs": [[757, 0, 0]]
    }, 
    {
      "op": "ones_like", 
      "name": "ones_like152", 
      "inputs": [[734, 0, 0]]
    }, 
    {
      "op": "Dropout", 
      "name": "dropout152", 
      "attrs": {"p": "0.2"}, 
      "inputs": [[759, 0, 0]]
    }, 
    {
      "op": "ones_like", 
      "name": "ones_like150", 
      "inputs": [[728, 0, 0]]
    }, 
    {
      "op": "Dropout", 
      "name": "dropout150", 
      "attrs": {"p": "0.2"}, 
      "inputs": [[761, 0, 0]]
    }, 
    {
      "op": "ones_like", 
      "name": "ones_like148", 
      "inputs": [[722, 0, 0]]
    }, 
    {
      "op": "Dropout", 
      "name": "dropout148", 
      "attrs": {"p": "0.2"}, 
      "inputs": [[763, 0, 0]]
    }, 
    {
      "op": "ones_like", 
      "name": "ones_like146", 
      "inputs": [[716, 0, 0]]
    }, 
    {
      "op": "Dropout", 
      "name": "dropout146", 
      "attrs": {"p": "0.2"}, 
      "inputs": [[765, 0, 0]]
    }, 
    {
      "op": "ones_like", 
      "name": "ones_like144", 
      "inputs": [[710, 0, 0]]
    }, 
    {
      "op": "Dropout", 
      "name": "dropout144", 
      "attrs": {"p": "0.2"}, 
      "inputs": [[767, 0, 0]]
    }, 
    {
      "op": "ones_like", 
      "name": "ones_like142", 
      "inputs": [[704, 0, 0]]
    }, 
    {
      "op": "Dropout", 
      "name": "dropout142", 
      "attrs": {"p": "0.2"}, 
      "inputs": [[769, 0, 0]]
    }, 
    {
      "op": "ones_like", 
      "name": "ones_like140", 
      "inputs": [[698, 0, 0]]
    }, 
    {
      "op": "Dropout", 
      "name": "dropout140", 
      "attrs": {"p": "0.2"}, 
      "inputs": [[771, 0, 0]]
    }, 
    {
      "op": "ones_like", 
      "name": "ones_like138", 
      "inputs": [[692, 0, 0]]
    }, 
    {
      "op": "Dropout", 
      "name": "dropout138", 
      "attrs": {"p": "0.2"}, 
      "inputs": [[773, 0, 0]]
    }, 
    {
      "op": "ones_like", 
      "name": "ones_like136", 
      "inputs": [[686, 0, 0]]
    }, 
    {
      "op": "Dropout", 
      "name": "dropout136", 
      "attrs": {"p": "0.2"}, 
      "inputs": [[775, 0, 0]]
    }, 
    {
      "op": "ones_like", 
      "name": "ones_like134", 
      "inputs": [[680, 0, 0]]
    }, 
    {
      "op": "Dropout", 
      "name": "dropout134", 
      "attrs": {"p": "0.2"}, 
      "inputs": [[777, 0, 0]]
    }, 
    {
      "op": "ones_like", 
      "name": "ones_like132", 
      "inputs": [[674, 0, 0]]
    }, 
    {
      "op": "Dropout", 
      "name": "dropout132", 
      "attrs": {"p": "0.2"}, 
      "inputs": [[779, 0, 0]]
    }, 
    {
      "op": "ones_like", 
      "name": "ones_like130", 
      "inputs": [[668, 0, 0]]
    }, 
    {
      "op": "Dropout", 
      "name": "dropout130", 
      "attrs": {"p": "0.2"}, 
      "inputs": [[781, 0, 0]]
    }, 
    {
      "op": "ones_like", 
      "name": "ones_like128", 
      "inputs": [[662, 0, 0]]
    }, 
    {
      "op": "Dropout", 
      "name": "dropout128", 
      "attrs": {"p": "0.2"}, 
      "inputs": [[783, 0, 0]]
    }, 
    {
      "op": "ones_like", 
      "name": "ones_like126", 
      "inputs": [[656, 0, 0]]
    }, 
    {
      "op": "Dropout", 
      "name": "dropout126", 
      "attrs": {"p": "0.2"}, 
      "inputs": [[785, 0, 0]]
    }, 
    {
      "op": "ones_like", 
      "name": "ones_like124", 
      "inputs": [[650, 0, 0]]
    }, 
    {
      "op": "Dropout", 
      "name": "dropout124", 
      "attrs": {"p": "0.2"}, 
      "inputs": [[787, 0, 0]]
    }, 
    {
      "op": "ones_like", 
      "name": "ones_like122", 
      "inputs": [[644, 0, 0]]
    }, 
    {
      "op": "Dropout", 
      "name": "dropout122", 
      "attrs": {"p": "0.2"}, 
      "inputs": [[789, 0, 0]]
    }, 
    {
      "op": "ones_like", 
      "name": "ones_like120", 
      "inputs": [[638, 0, 0]]
    }, 
    {
      "op": "Dropout", 
      "name": "dropout120", 
      "attrs": {"p": "0.2"}, 
      "inputs": [[791, 0, 0]]
    }, 
    {
      "op": "ones_like", 
      "name": "ones_like118", 
      "inputs": [[632, 0, 0]]
    }, 
    {
      "op": "Dropout", 
      "name": "dropout118", 
      "attrs": {"p": "0.2"}, 
      "inputs": [[793, 0, 0]]
    }, 
    {
      "op": "ones_like", 
      "name": "ones_like116", 
      "inputs": [[626, 0, 0]]
    }, 
    {
      "op": "Dropout", 
      "name": "dropout116", 
      "attrs": {"p": "0.2"}, 
      "inputs": [[795, 0, 0]]
    }, 
    {
      "op": "ones_like", 
      "name": "ones_like114", 
      "inputs": [[620, 0, 0]]
    }, 
    {
      "op": "Dropout", 
      "name": "dropout114", 
      "attrs": {"p": "0.2"}, 
      "inputs": [[797, 0, 0]]
    }, 
    {
      "op": "ones_like", 
      "name": "ones_like112", 
      "inputs": [[614, 0, 0]]
    }, 
    {
      "op": "Dropout", 
      "name": "dropout112", 
      "attrs": {"p": "0.2"}, 
      "inputs": [[799, 0, 0]]
    }, 
    {
      "op": "ones_like", 
      "name": "ones_like110", 
      "inputs": [[608, 0, 0]]
    }, 
    {
      "op": "Dropout", 
      "name": "dropout110", 
      "attrs": {"p": "0.2"}, 
      "inputs": [[801, 0, 0]]
    }, 
    {
      "op": "ones_like", 
      "name": "ones_like108", 
      "inputs": [[602, 0, 0]]
    }, 
    {
      "op": "Dropout", 
      "name": "dropout108", 
      "attrs": {"p": "0.2"}, 
      "inputs": [[803, 0, 0]]
    }, 
    {
      "op": "ones_like", 
      "name": "ones_like106", 
      "inputs": [[596, 0, 0]]
    }, 
    {
      "op": "Dropout", 
      "name": "dropout106", 
      "attrs": {"p": "0.2"}, 
      "inputs": [[805, 0, 0]]
    }, 
    {
      "op": "ones_like", 
      "name": "ones_like104", 
      "inputs": [[590, 0, 0]]
    }, 
    {
      "op": "Dropout", 
      "name": "dropout104", 
      "attrs": {"p": "0.2"}, 
      "inputs": [[807, 0, 0]]
    }, 
    {
      "op": "ones_like", 
      "name": "ones_like102", 
      "inputs": [[584, 0, 0]]
    }, 
    {
      "op": "Dropout", 
      "name": "dropout102", 
      "attrs": {"p": "0.2"}, 
      "inputs": [[809, 0, 0]]
    }, 
    {
      "op": "ones_like", 
      "name": "ones_like100", 
      "inputs": [[578, 0, 0]]
    }, 
    {
      "op": "Dropout", 
      "name": "dropout100", 
      "attrs": {"p": "0.2"}, 
      "inputs": [[811, 0, 0]]
    }, 
    {
      "op": "ones_like", 
      "name": "ones_like98", 
      "inputs": [[572, 0, 0]]
    }, 
    {
      "op": "Dropout", 
      "name": "dropout98", 
      "attrs": {"p": "0.2"}, 
      "inputs": [[813, 0, 0]]
    }, 
    {
      "op": "ones_like", 
      "name": "ones_like96", 
      "inputs": [[566, 0, 0]]
    }, 
    {
      "op": "Dropout", 
      "name": "dropout96", 
      "attrs": {"p": "0.2"}, 
      "inputs": [[815, 0, 0]]
    }, 
    {
      "op": "ones_like", 
      "name": "ones_like94", 
      "inputs": [[560, 0, 0]]
    }, 
    {
      "op": "Dropout", 
      "name": "dropout94", 
      "attrs": {"p": "0.2"}, 
      "inputs": [[817, 0, 0]]
    }, 
    {
      "op": "ones_like", 
      "name": "ones_like92", 
      "inputs": [[554, 0, 0]]
    }, 
    {
      "op": "Dropout", 
      "name": "dropout92", 
      "attrs": {"p": "0.2"}, 
      "inputs": [[819, 0, 0]]
    }, 
    {
      "op": "ones_like", 
      "name": "ones_like90", 
      "inputs": [[548, 0, 0]]
    }, 
    {
      "op": "Dropout", 
      "name": "dropout90", 
      "attrs": {"p": "0.2"}, 
      "inputs": [[821, 0, 0]]
    }, 
    {
      "op": "ones_like", 
      "name": "ones_like88", 
      "inputs": [[542, 0, 0]]
    }, 
    {
      "op": "Dropout", 
      "name": "dropout88", 
      "attrs": {"p": "0.2"}, 
      "inputs": [[823, 0, 0]]
    }, 
    {
      "op": "ones_like", 
      "name": "ones_like86", 
      "inputs": [[536, 0, 0]]
    }, 
    {
      "op": "Dropout", 
      "name": "dropout86", 
      "attrs": {"p": "0.2"}, 
      "inputs": [[825, 0, 0]]
    }, 
    {
      "op": "ones_like", 
      "name": "ones_like84", 
      "inputs": [[530, 0, 0]]
    }, 
    {
      "op": "Dropout", 
      "name": "dropout84", 
      "attrs": {"p": "0.2"}, 
      "inputs": [[827, 0, 0]]
    }, 
    {
      "op": "ones_like", 
      "name": "ones_like82", 
      "inputs": [[524, 0, 0]]
    }, 
    {
      "op": "Dropout", 
      "name": "dropout82", 
      "attrs": {"p": "0.2"}, 
      "inputs": [[829, 0, 0]]
    }, 
    {
      "op": "ones_like", 
      "name": "ones_like80", 
      "inputs": [[518, 0, 0]]
    }, 
    {
      "op": "Dropout", 
      "name": "dropout80", 
      "attrs": {"p": "0.2"}, 
      "inputs": [[831, 0, 0]]
    }, 
    {
      "op": "_zeros", 
      "name": "_zeros1", 
      "attrs": {
        "dtype": "float32", 
        "shape": "(0, 0)"
      }, 
      "inputs": []
    }, 
    {
      "op": "where", 
      "name": "where80", 
      "inputs": [[832, 0, 0], [518, 0, 0], [833, 0, 0]]
    }, 
    {
      "op": "where", 
      "name": "where82", 
      "inputs": [[830, 0, 0], [524, 0, 0], [834, 0, 0]]
    }, 
    {
      "op": "where", 
      "name": "where84", 
      "inputs": [[828, 0, 0], [530, 0, 0], [835, 0, 0]]
    }, 
    {
      "op": "where", 
      "name": "where86", 
      "inputs": [[826, 0, 0], [536, 0, 0], [836, 0, 0]]
    }, 
    {
      "op": "where", 
      "name": "where88", 
      "inputs": [[824, 0, 0], [542, 0, 0], [837, 0, 0]]
    }, 
    {
      "op": "where", 
      "name": "where90", 
      "inputs": [[822, 0, 0], [548, 0, 0], [838, 0, 0]]
    }, 
    {
      "op": "where", 
…
    365, 
    366, 
    367, 
    368, 
    369, 
    370, 
    371, 
    374, 
    375, 
    376, 
    377, 
    378, 
    379, 
    380, 
    381, 
    384, 
    385, 
    386, 
    387, 
    388, 
    389, 
    390, 
    391, 
    394, 
    395, 
    396, 
    397, 
    398, 
    399, 
    400, 
    401, 
    402, 
    405, 
    406, 
    407, 
    408, 
    409, 
    410, 
    411, 
    412, 
    415, 
    416, 
    417, 
    418, 
    419, 
    420, 
    421, 
    422, 
    425, 
    426, 
    427, 
    428, 
    429, 
    430, 
    431, 
    432, 
    433, 
    436, 
    437, 
    438, 
    439, 
    440, 
    441, 
    442, 
    443, 
    446, 
    447, 
    448, 
    449, 
    450, 
    451, 
    452, 
    453, 
    456, 
    457, 
    458, 
    459, 
    460, 
    461, 
    462, 
    463, 
    464, 
    465, 
    466, 
    469, 
    470, 
    471, 
    472, 
    473, 
    474, 
    475, 
    476, 
    479, 
    480, 
    481, 
    482, 
    483, 
    484, 
    485, 
    486, 
    489, 
    490, 
    491, 
    492, 
    493, 
    494, 
    495, 
    496, 
    497, 
    500, 
    501, 
    502, 
    503, 
    504, 
    505, 
    506, 
    507, 
    510, 
    511, 
    512, 
    513, 
    514, 
    515, 
    516, 
    517, 
    520, 
    521, 
    522, 
    523, 
    524, 
    525, 
    526, 
    527, 
    528, 
    531, 
    532, 
    533, 
    535, 
    536, 
    537, 
    538, 
    539, 
    540, 
    541, 
    542, 
    543, 
    544, 
    545, 
    546, 
    547, 
    548, 
    549, 
    550, 
    552, 
    553, 
    554, 
    555, 
    556, 
    557, 
    558, 
    559, 
    560, 
    561, 
    601, 
    602, 
    603, 
    604, 
    605, 
    606, 
    607, 
    608, 
    609, 
    610, 
    611, 
    613, 
    614, 
    615, 
    616, 
    617, 
    618, 
    619, 
    620, 
    621, 
    622, 
    623, 
    624, 
    625, 
    626, 
    627, 
    628, 
    629, 
    630, 
    631, 
    632, 
    633, 
    634, 
    635, 
    636, 
    637, 
    638, 
    639, 
    640, 
    641, 
    642, 
    643, 
    644, 
    645, 
    646, 
    647, 
    648, 
    649, 
    650, 
    651, 
    652, 
    653, 
    654, 
    655, 
    656, 
    657, 
    658, 
    659, 
    660, 
    661, 
    662, 
    663, 
    664, 
    666, 
    667, 
    668, 
    669, 
    670, 
    671, 
    673, 
    674, 
    675, 
    676, 
    677, 
    678, 
    680, 
    681, 
    682, 
    683, 
    684, 
    685, 
    687, 
    688, 
    689, 
    690, 
    691, 
    692, 
    694, 
    695, 
    696, 
    697, 
    698, 
    699, 
    701, 
    702, 
    703, 
    704, 
    705, 
    706, 
    708, 
    709, 
    710, 
    711, 
    712, 
    713, 
    715, 
    716, 
    717, 
    718, 
    719, 
    720, 
    722, 
    723, 
    724, 
    725, 
    726, 
    727, 
    729, 
    730, 
    731, 
    732, 
    733, 
    734, 
    736, 
    737, 
    738, 
    739, 
    740, 
    741, 
    743, 
    744, 
    745, 
    746, 
    747, 
    748, 
    750, 
    751, 
    752, 
    753, 
    754, 
    755, 
    757, 
    758, 
    759, 
    760, 
    761, 
    762, 
    764, 
    765, 
    766, 
    767, 
    768, 
    769, 
    771, 
    772, 
    773, 
    774, 
    775, 
    776, 
    778, 
    779, 
    780, 
    781, 
    782, 
    783, 
    785, 
    786, 
    787, 
    788, 
    789, 
    790, 
    792, 
    793, 
    794, 
    795, 
    796, 
    797, 
    799, 
    800, 
    801, 
    802, 
    803, 
    804, 
    806, 
    807, 
    808, 
    809, 
    810, 
    811, 
    813, 
    814, 
    815, 
    816, 
    817, 
    818, 
    820, 
    821, 
    822, 
    823, 
    824, 
    825, 
    827, 
    828, 
    829, 
    830, 
    831, 
    832, 
    834, 
    835, 
    836, 
    837, 
    838, 
    839, 
    841, 
    842, 
    843, 
    844, 
    845, 
    846, 
    848, 
    849, 
    850, 
    851, 
    852, 
    853, 
    855, 
    856, 
    857, 
    858, 
    859, 
    860, 
    862, 
    863, 
    864, 
    865, 
    866, 
    867, 
    869, 
    870, 
    871, 
    872, 
    873, 
    874, 
    876, 
    877, 
    878, 
    879, 
    880, 
    881, 
    883, 
    884, 
    885, 
    886, 
    887, 
    888, 
    890, 
    891, 
    892, 
    893, 
    894, 
    895, 
    897, 
    898, 
    899, 
    900, 
    901, 
    902, 
    904, 
    905, 
    906, 
    907, 
    908, 
    909, 
    911, 
    912, 
    913, 
    914, 
    915, 
    916, 
    918, 
    919, 
    920, 
    921, 
    922, 
    923, 
    925, 
    926, 
    927, 
    928, 
    929, 
    930, 
    932, 
    933, 
    934, 
    935, 
    936, 
    937, 
    939, 
    940, 
    942, 
    943, 
    945, 
    946, 
    948, 
    949, 
    951, 
    952, 
    954, 
    955, 
    957, 
    958, 
    960, 
    961, 
    963, 
    964, 
    966, 
    967, 
    969, 
    970, 
    972, 
    973, 
    975, 
    976, 
    978, 
    979, 
    981, 
    982, 
    984, 
    985, 
    987, 
    988, 
    990, 
    991, 
    993, 
    994, 
    996, 
    997, 
    999, 
    1000, 
    1002, 
    1003, 
    1005, 
    1006, 
    1008, 
    1009, 
    1011, 
    1012, 
    1014, 
    1015, 
    1017, 
    1018, 
    1020, 
    1021, 
    1023, 
    1024, 
    1026, 
    1027, 
    1029, 
    1030, 
    1032, 
    1033, 
    1035, 
    1036, 
    1038, 
    1039, 
    1041, 
    1042, 
    1044, 
    1045, 
    1047, 
    1048, 
    1050, 
    1051, 
    1053, 
    1054, 
    1056, 
    1057, 
    1058, 
    1059, 
    1060, 
    1061, 
    1062, 
    1063, 
    1064, 
    1065, 
    1066, 
    1067, 
    1068, 
    1069, 
    1070, 
    1071, 
    1072, 
    1073, 
    1074, 
    1075, 
    1076, 
    1077, 
    1078, 
    1079, 
    1080, 
    1081, 
    1082, 
    1083, 
    1084, 
    1085, 
    1086, 
    1087, 
    1088, 
    1089, 
    1090, 
    1091, 
    1092, 
    1093, 
    1094, 
    1095, 
    1096, 
    1097, 
    1098, 
    1100, 
    1101, 
    1102, 
    1103, 
    1104, 
    1105, 
    1106, 
    1107, 
    1108, 
    1109, 
    1110, 
    1112, 
    1113, 
    1114, 
    1115, 
    1116, 
    1117, 
    1118, 
    1119, 
    1121, 
    1122, 
    1123, 
    1124, 
    1125, 
    1126, 
    1128, 
    1129, 
    1130, 
    1132, 
    1133, 
    1134, 
    1135, 
    1137, 
    1138, 
    1139, 
    1140, 
    1141, 
    1142, 
    1144, 
    1145, 
    1146, 
    1148, 
    1149, 
    1150, 
    1151, 
    1153, 
    1154, 
    1155, 
    1156, 
    1157, 
    1158, 
    1160, 
    1161, 
    1162, 
    1164, 
    1165, 
    1166, 
    1167, 
    1169, 
    1170, 
    1171, 
    1172, 
    1173, 
    1174, 
    1176, 
    1177, 
    1178, 
    1180, 
    1181, 
    1182, 
    1183, 
    1185, 
    1186, 
    1187, 
    1188, 
    1189, 
    1190, 
    1192, 
    1193, 
    1194, 
    1196, 
    1197, 
    1198, 
    1199, 
    1201, 
    1202, 
    1203, 
    1204, 
    1205, 
    1206, 
    1208, 
    1209, 
    1210, 
    1212, 
    1213, 
    1214, 
    1215, 
    1217, 
    1218, 
    1219, 
    1220, 
    1221, 
    1222, 
    1224, 
    1225, 
    1226, 
    1228, 
    1229, 
    1230, 
    1231, 
    1233, 
    1234, 
    1235, 
    1236, 
    1237, 
    1238, 
    1240, 
    1241, 
    1242, 
    1244, 
    1245, 
    1246, 
    1247, 
    1249, 
    1250, 
    1251, 
    1252, 
    1253, 
    1254, 
    1256, 
    1257, 
    1258, 
    1260, 
    1261, 
    1262, 
    1263, 
    1265, 
    1266, 
    1267, 
    1268, 
    1269, 
    1270, 
    1272, 
    1273, 
    1274, 
    1276, 
    1277, 
    1278, 
    1279, 
    1281, 
    1282, 
    1283, 
    1284, 
    1285, 
    1286, 
    1288, 
    1289, 
    1290, 
    1292, 
    1293, 
    1294, 
    1295, 
    1297, 
    1298, 
    1299, 
    1300, 
    1301, 
    1302, 
    1304, 
    1305, 
    1306, 
    1308, 
    1309, 
    1310, 
    1311, 
    1313, 
    1314, 
    1315, 
    1316, 
    1317, 
    1318, 
    1320, 
    1321, 
    1322, 
    1324, 
    1325, 
    1326, 
    1327, 
    1329, 
    1330, 
    1331, 
    1332, 
    1333, 
    1334, 
    1336, 
    1337, 
    1338, 
    1340, 
    1341, 
    1342, 
    1343, 
    1345, 
    1346, 
    1347, 
    1348, 
    1349, 
    1350, 
    1352, 
    1353, 
    1354, 
    1356, 
    1357, 
    1358, 
    1359, 
    1361, 
    1362, 
    1363, 
    1364, 
    1365, 
    1366, 
    1368, 
    1369, 
    1370, 
    1372, 
    1373, 
    1374, 
    1375, 
    1377, 
    1378, 
    1379, 
    1380, 
    1381, 
    1382, 
    1384, 
    1385, 
    1386, 
    1388, 
    1389, 
    1390, 
    1391, 
    1393, 
    1394, 
    1395, 
    1396, 
    1397, 
    1398, 
    1400, 
    1401, 
    1402, 
    1404, 
    1405, 
    1406, 
    1407, 
    1409, 
    1410, 
    1411, 
    1412, 
    1413, 
    1414, 
    1416, 
    1417, 
    1418, 
    1420, 
    1421, 
    1422, 
    1423, 
    1425, 
    1426, 
    1427, 
    1428, 
    1429, 
    1430, 
    1432, 
    1433, 
    1434, 
    1436, 
    1437, 
    1438, 
    1439, 
    1441, 
    1442, 
    1443, 
    1444, 
    1445, 
    1446, 
    1448, 
    1449, 
    1450, 
    1452, 
    1453, 
    1454, 
    1455, 
    1457, 
    1458, 
    1459, 
    1460, 
    1461, 
    1462, 
    1464, 
    1465, 
    1466, 
    1468, 
    1469, 
    1470, 
    1471, 
    1473, 
    1474, 
    1475, 
    1476, 
    1477, 
    1478, 
    1480, 
    1481, 
    1482, 
    1484, 
    1485, 
    1486, 
    1487, 
    1489, 
    1490, 
    1491, 
    1492, 
    1493, 
    1494, 
    1496, 
    1497, 
    1498, 
    1500, 
    1501, 
    1502, 
    1503, 
    1505, 
    1506, 
    1507, 
    1508, 
    1509, 
    1510, 
    1512, 
    1513, 
    1514, 
    1516, 
    1517, 
    1518, 
    1519, 
    1521, 
    1522, 
    1523, 
    1524, 
    1525, 
    1526, 
    1528, 
    1529, 
    1530, 
    1532, 
    1533, 
    1534, 
    1535, 
    1537, 
    1538, 
    1539, 
    1540, 
    1541, 
    1542, 
    1544, 
    1545, 
    1546, 
    1548, 
    1549, 
    1550, 
    1551, 
    1553, 
    1554, 
    1555, 
    1556, 
    1557, 
    1558, 
    1560, 
    1561, 
    1562, 
    1564, 
    1565, 
    1566, 
    1567, 
    1569, 
    1570, 
    1571, 
    1572, 
    1573, 
    1574, 
    1576, 
    1577, 
    1578, 
    1580, 
    1581, 
    1582, 
    1583, 
    1585, 
    1586, 
    1587, 
    1588, 
    1589, 
    1590, 
    1592, 
    1593, 
    1594, 
    1596, 
    1597, 
    1598, 
    1599, 
    1601, 
    1602, 
    1603, 
    1604, 
    1605, 
    1606, 
    1608, 
    1609, 
    1610, 
    1612, 
    1613, 
    1614, 
    1615, 
    1617, 
    1618, 
    1619, 
    1620, 
    1621, 
    1622, 
    1624, 
    1625, 
    1626, 
    1628, 
    1629, 
    1630, 
    1631, 
    1633, 
    1634, 
    1635, 
    1636, 
    1637, 
    1638, 
    1640, 
    1641, 
    1642, 
    1644, 
    1645, 
    1646, 
    1647, 
    1649, 
    1650, 
    1651, 
    1652, 
    1653, 
    1654, 
    1656, 
    1657, 
    1658, 
    1660, 
    1661, 
    1662, 
    1663, 
    1665, 
    1666, 
    1667, 
    1668, 
    1669, 
    1670, 
    1672, 
    1673, 
    1674, 
    1676, 
    1677, 
    1678, 
    1679, 
    1681, 
    1682, 
    1683, 
    1684, 
    1685, 
    1686, 
    1688, 
    1689, 
    1690, 
    1692, 
    1693, 
    1694, 
    1695, 
    1697, 
    1698, 
    1699, 
    1700, 
    1701, 
    1702, 
    1704, 
    1705, 
    1706, 
    1708, 
    1709, 
    1710, 
    1711, 
    1713, 
    1714, 
    1715, 
    1716, 
    1717, 
    1718, 
    1720, 
    1721, 
    1722, 
    1724, 
    1725, 
    1726, 
    1727, 
    1729, 
    1730, 
    1731, 
    1732, 
    1733, 
    1734, 
    1736, 
    1737, 
    1738, 
    1740, 
    1741, 
    1742, 
    1743, 
    1744, 
    1745, 
    1746, 
    1747, 
    1748, 
    1750, 
    1751, 
    1752, 
    1753, 
    1754, 
    1755, 
    1757, 
    1758, 
    1759, 
    1760, 
    1761, 
    1762, 
    1764, 
    1765, 
    1766, 
    1767, 
    1768, 
    1769, 
    1771, 
    1772, 
    1773, 
    1774, 
    1775, 
    1776, 
    1778, 
    1779, 
    1780, 
    1781, 
    1782, 
    1783, 
    1785, 
    1786, 
    1787, 
    1788, 
    1789, 
    1790, 
    1792, 
    1793, 
    1794, 
    1795, 
    1796, 
    1797, 
    1799, 
    1800, 
    1801, 
    1802, 
    1803, 
    1804, 
    1806, 
    1807, 
    1808, 
    1809, 
    1810, 
    1811, 
    1813, 
    1814, 
    1815, 
    1816, 
    1817, 
    1818, 
    1820, 
    1821, 
    1822, 
    1823, 
    1824, 
    1825, 
    1827, 
    1828, 
    1829, 
    1830, 
    1831, 
    1832, 
    1834, 
    1835, 
    1836, 
    1837, 
    1838, 
    1839, 
    1841, 
    1842, 
    1843, 
    1844, 
    1845, 
    1846, 
    1848, 
    1849, 
    1850, 
    1851, 
    1852, 
    1853, 
    1855, 
    1856, 
    1857, 
    1858, 
    1859, 
    1860, 
    1862, 
    1863, 
    1864, 
    1865, 
    1866, 
    1867, 
    1869, 
    1870, 
    1871, 
    1872, 
    1873, 
    1874, 
    1876, 
    1877, 
    1878, 
    1879, 
    1880, 
    1881, 
    1883, 
    1884, 
    1885, 
    1886, 
    1887, 
    1888, 
    1890, 
    1891, 
    1892, 
    1893, 
    1894, 
    1895, 
    1897, 
    1898, 
    1899, 
    1900, 
    1901, 
    1902, 
    1904, 
    1905, 
    1906, 
    1907, 
    1908, 
    1909, 
    1911, 
    1912, 
    1913, 
    1914, 
    1915, 
    1916, 
    1918, 
    1919, 
    1920, 
    1921, 
    1922, 
    1923, 
    1925, 
    1926, 
    1927, 
    1928, 
    1929, 
    1930, 
    1932, 
    1933, 
    1934, 
    1935, 
    1936, 
    1937, 
    1939, 
    1940, 
    1941, 
    1942, 
    1943, 
    1944, 
    1946, 
    1947, 
    1948, 
    1949, 
    1950, 
    1951, 
    1953, 
    1954, 
    1955, 
    1956, 
    1957, 
    1958, 
    1960, 
    1961, 
    1962, 
    1963, 
    1964, 
    1965, 
    1967, 
    1968, 
    1969, 
    1970, 
    1971, 
    1972, 
    1974, 
    1975, 
    1976, 
    1977, 
    1978, 
    1979, 
    1981, 
    1982, 
    1983, 
    1984, 
    1985, 
    1986, 
    1988, 
    1989, 
    1990, 
    1991, 
    1992, 
    1993, 
    1995, 
    1996, 
    1997, 
    1998, 
    1999, 
    2000, 
    2002, 
    2003, 
    2004, 
    2005, 
    2006, 
    2007, 
    2009, 
    2010, 
    2011, 
    2012, 
    2013, 
    2014, 
    2016, 
    2017, 
    2018, 
    2019, 
    2020, 
    2021, 
    2023, 
    2024, 
    2026, 
    2027, 
    2029, 
    2030, 
    2032, 
    2033, 
    2035, 
    2036, 
    2038, 
    2039, 
    2041, 
    2042, 
    2044, 
    2045, 
    2047, 
    2048, 
    2050, 
    2051, 
    2053, 
    2054, 
    2056, 
    2057, 
    2059, 
    2060, 
    2062, 
    2063, 
    2065, 
    2066, 
    2068, 
    2069, 
    2071, 
    2072, 
    2074, 
    2075, 
    2077, 
    2078, 
    2080, 
    2081, 
    2083, 
    2084, 
    2086, 
    2087, 
    2089, 
    2090, 
    2092, 
    2093, 
    2095, 
    2096, 
    2098, 
    2099, 
    2101, 
    2102, 
    2104, 
    2105, 
    2107, 
    2108, 
    2110, 
    2111, 
    2113, 
    2114, 
    2116, 
    2117, 
    2119, 
    2120, 
    2122, 
    2123, 
    2125, 
    2126, 
    2128, 
    2129, 
    2131, 
    2132, 
    2134, 
    2135, 
    2137, 
    2138, 
    2140, 
    2141, 
    2142, 
    2143, 
    2144, 
    2145, 
    2146, 
    2147, 
    2148, 
    2149, 
    2150, 
    2151, 
    2152, 
    2153, 
    2154, 
    2155, 
    2156, 
    2157, 
    2158, 
    2159, 
    2160, 
    2161, 
    2162, 
    2163, 
    2164, 
    2165, 
    2166, 
    2167, 
    2168, 
    2169, 
    2170, 
    2171, 
    2172, 
    2173, 
    2174, 
    2175, 
    2176, 
    2177, 
    2178, 
    2179, 
    2180, 
    2181, 
    2182, 
    2183, 
    2184, 
    2185, 
    2187, 
    2188, 
    2189, 
    2190, 
    2191, 
    2192, 
    2194, 
    2195, 
    2196, 
    2197, 
    2198, 
    2199, 
    2201, 
    2202, 
    2203, 
    2204, 
    2205, 
    2206, 
    2208, 
    2209, 
    2210, 
    2211, 
    2212, 
    2213, 
    2215, 
    2216, 
    2217, 
    2218, 
    2219, 
    2220, 
    2222, 
    2223, 
    2224, 
    2225, 
    2226, 
    2227, 
    2229, 
    2230, 
    2231, 
    2232, 
    2233, 
    2234, 
    2236, 
    2237, 
    2238, 
    2239, 
    2240, 
    2241, 
    2243, 
    2244, 
    2245, 
    2246, 
    2247, 
    2248, 
    2250, 
    2251, 
    2252, 
    2253, 
    2254, 
    2255, 
    2257, 
    2258, 
    2259, 
    2260, 
    2261, 
    2262, 
    2264, 
    2265, 
    2266, 
    2267, 
    2268, 
    2269, 
    2271, 
    2272, 
    2273, 
    2274, 
    2275, 
    2276, 
    2278, 
    2279, 
    2280, 
    2281, 
    2282, 
    2283, 
    2285, 
    2286, 
    2287, 
    2288, 
    2289, 
    2290, 
    2292, 
    2293, 
    2294, 
    2295, 
    2296, 
    2297, 
    2299, 
    2300, 
    2301, 
    2302, 
    2303, 
    2304, 
    2306, 
    2307, 
    2308, 
    2309, 
    2310, 
    2311, 
    2313, 
    2314, 
    2315, 
    2316, 
    2317, 
    2318, 
    2320, 
    2321, 
    2322, 
    2323, 
    2324, 
    2325, 
    2327, 
    2328, 
    2329, 
    2330, 
    2331, 
    2332, 
    2334, 
    2335, 
    2336, 
    2337, 
    2338, 
    2339, 
    2341, 
    2342, 
    2343, 
    2344, 
    2345, 
    2346, 
    2348, 
    2349, 
    2350, 
    2351, 
    2352, 
    2353, 
    2355, 
    2356, 
    2357, 
    2358, 
    2359, 
    2360, 
    2362, 
    2363, 
    2364, 
    2365, 
    2366, 
    2367, 
    2369, 
    2370, 
    2371, 
    2372, 
    2373, 
    2374, 
    2376, 
    2377, 
    2378, 
    2379, 
    2380, 
    2381, 
    2383, 
    2384, 
    2385, 
    2386, 
    2387, 
    2388, 
    2390, 
    2391, 
    2392, 
    2393, 
    2394, 
    2395, 
    2397, 
    2398, 
    2399, 
    2400, 
    2401, 
    2402, 
    2404, 
    2405, 
    2406, 
    2407, 
    2408, 
    2409, 
    2411, 
    2412, 
    2413, 
    2414, 
    2415, 
    2416, 
    2418, 
    2419, 
    2420, 
    2421, 
    2422, 
    2423, 
    2425, 
    2426, 
    2427, 
    2428, 
    2429, 
    2430, 
    2432, 
    2433, 
    2434, 
    2435, 
    2436, 
    2437, 
    2439, 
    2440, 
    2441, 
    2442, 
    2443, 
    2444, 
    2446, 
    2447, 
    2448, 
    2449, 
    2450, 
    2451, 
    2453, 
    2454, 
    2455, 
    2456, 
    2457, 
    2458, 
    2460, 
    2461, 
    2462, 
    2463, 
    2464, 
    2465, 
    2467, 
    2468, 
    2469, 
    2470, 
    2471, 
    2472, 
    2474, 
    2475, 
    2476, 
    2477, 
    2478, 
    2479, 
    2481, 
    2482, 
    2483, 
    2484, 
    2485, 
    2486, 
    2488, 
    2489, 
    2490, 
    2491, 
    2492, 
    2493, 
    2495, 
    2496, 
    2497, 
    2498, 
    2499, 
    2500, 
    2502, 
    2503, 
    2504, 
    2505, 
    2506, 
    2507, 
    2509, 
    2510, 
    2511, 
    2512, 
    2513, 
    2514, 
    2516, 
    2517, 
    2518, 
    2519, 
    2520, 
    2521, 
    2523, 
    2524, 
    2525, 
    2526, 
    2527, 
    2528, 
    2530, 
    2531, 
    2532, 
    2533, 
    2534, 
    2535, 
    2537, 
    2538, 
    2539, 
    2540, 
    2541, 
    2542, 
    2544, 
    2545, 
    2546, 
    2547, 
    2548, 
    2549, 
    2551, 
    2552, 
    2553, 
    2554, 
    2555, 
    2556, 
    2558, 
    2559, 
    2560, 
    2561, 
    2562, 
    2563, 
    2565, 
    2566, 
    2567, 
    2568, 
    2569, 
    2570, 
    2572, 
    2573, 
    2574, 
    2575, 
    2576, 
    2577, 
    2579, 
    2580, 
    2581, 
    2582, 
    2583, 
    2584, 
    2586, 
    2587, 
    2588, 
    2589, 
    2590, 
    2591, 
    2593, 
    2594, 
    2595, 
    2596, 
    2597, 
    2598, 
    2600, 
    2601, 
    2602, 
    2603, 
    2604, 
    2605, 
    2607, 
    2608, 
    2609, 
    2610, 
    2611, 
    2612, 
    2614, 
    2615, 
    2616, 
    2617, 
    2618, 
    2619, 
    2621, 
    2622, 
    2623, 
    2624, 
    2625, 
    2626, 
    2628, 
    2629, 
    2630, 
    2631, 
    2632, 
    2633, 
    2635, 
    2636, 
    2637, 
    2638, 
    2639, 
    2640, 
    2642, 
    2643, 
    2644, 
    2645, 
    2646, 
    2647, 
    2649, 
    2650, 
    2651, 
    2652, 
    2653, 
    2654, 
    2656, 
    2657, 
    2658, 
    2659, 
    2660, 
    2661, 
    2663, 
    2664, 
    2665, 
    2666, 
    2667, 
    2668, 
    2670, 
    2671, 
    2672, 
    2673, 
    2674, 
    2675, 
    2677, 
    2678, 
    2679, 
    2680, 
    2681, 
    2682, 
    2684, 
    2685, 
    2686, 
    2687, 
    2688, 
    2689, 
    2691, 
    2692, 
    2693, 
    2694, 
    2695, 
    2696, 
    2698, 
    2699, 
    2700, 
    2701, 
    2702, 
    2703, 
    2705, 
    2706, 
    2707, 
    2708, 
    2709, 
    2710, 
    2712, 
    2713, 
    2714, 
    2715, 
    2716, 
    2717, 
    2719, 
    2720, 
    2721, 
    2722, 
    2723, 
    2724, 
    2726, 
    2727, 
    2728, 
    2729, 
    2730, 
    2732, 
    2733, 
    2735, 
    2736, 
    2737, 
    2738, 
    2739, 
    2740, 
    2741, 
    2744, 
    2745, 
    2746, 
    2747, 
    2748, 
    2788, 
    2789, 
    2790, 
    2791, 
    2792, 
    2793, 
    2794, 
    2795, 
    2796, 
    2797, 
    2798, 
    2800, 
    2801, 
    2802, 
    2803, 
    2804, 
    2805, 
    2806, 
    2807, 
    2808, 
    2809, 
    2810, 
    2811, 
    2812, 
    2813, 
    2814, 
    2815, 
    2816, 
    2817, 
    2818, 
    2819, 
    2820, 
    2821, 
    2822, 
    2823, 
    2824, 
    2825, 
    2826, 
    2827, 
    2828, 
    2829, 
    2830, 
    2831, 
    2832, 
    2833, 
    2834, 
    2835, 
    2836, 
    2837, 
    2838, 
    2839, 
    2840, 
    2841, 
    2842, 
    2843, 
    2844, 
    2845, 
    2846, 
    2847, 
    2848, 
    2849, 
    2850, 
    2851, 
    2853, 
    2854, 
    2855, 
    2856, 
    2857, 
    2858, 
    2860, 
    2861, 
    2862, 
    2863, 
    2864, 
    2865, 
    2867, 
    2868, 
    2869, 
    2870, 
    2871, 
    2872, 
    2874, 
    2875, 
    2876, 
    2877, 
    2878, 
    2879, 
    2881, 
    2882, 
    2883, 
    2884, 
    2885, 
    2886, 
    2888, 
    2889, 
    2890, 
    2891, 
    2892, 
    2893, 
    2895, 
    2896, 
    2897, 
    2898, 
    2899, 
    2900, 
    2902, 
    2903, 
    2904, 
    2905, 
    2906, 
    2907, 
    2909, 
    2910, 
    2911, 
    2912, 
    2913, 
    2914, 
    2916, 
    2917, 
    2918, 
    2919, 
    2920, 
    2921, 
    2923, 
    2924, 
    2925, 
    2926, 
    2927, 
    2928, 
    2930, 
    2931, 
    2932, 
    2933, 
    2934, 
    2935, 
    2937, 
    2938, 
    2939, 
    2940, 
    2941, 
    2942, 
    2944, 
    2945, 
    2946, 
    2947, 
    2948, 
    2949, 
    2951, 
    2952, 
    2953, 
    2954, 
    2955, 
    2956, 
    2958, 
    2959, 
    2960, 
    2961, 
    2962, 
    2963, 
    2965, 
    2966, 
    2967, 
    2968, 
    2969, 
    2970, 
    2972, 
    2973, 
    2974, 
    2975, 
    2976, 
    2977, 
    2979, 
    2980, 
    2981, 
    2982, 
    2983, 
    2984, 
    2986, 
    2987, 
    2988, 
    2989, 
    2990, 
    2991, 
    2993, 
    2994, 
    2995, 
    2996, 
    2997, 
    2998, 
    3000, 
    3001, 
    3002, 
    3003, 
    3004, 
    3005, 
    3007, 
    3008, 
    3009, 
    3010, 
    3011, 
    3012, 
    3014, 
    3015, 
    3016, 
    3017, 
    3018, 
    3019, 
    3021, 
    3022, 
    3023, 
    3024, 
    3025, 
    3026, 
    3028, 
    3029, 
    3030, 
    3031, 
    3032, 
    3033, 
    3035, 
    3036, 
    3037, 
    3038, 
    3039, 
    3040, 
    3042, 
    3043, 
    3044, 
    3045, 
    3046, 
    3047, 
    3049, 
    3050, 
    3051, 
    3052, 
    3053, 
    3054, 
    3056, 
    3057, 
    3058, 
    3059, 
    3060, 
    3061, 
    3063, 
    3064, 
    3065, 
    3066, 
    3067, 
    3068, 
    3070, 
    3071, 
    3072, 
    3073, 
    3074, 
    3075, 
    3077, 
    3078, 
    3079, 
    3080, 
    3081, 
    3082, 
    3084, 
    3085, 
    3086, 
    3087, 
    3088, 
    3089, 
    3091, 
    3092, 
    3093, 
    3094, 
    3095, 
    3096, 
    3098, 
    3099, 
    3100, 
    3101, 
    3102, 
    3103, 
    3105, 
    3106, 
    3107, 
    3108, 
    3109, 
    3110, 
    3112, 
    3113, 
    3114, 
    3115, 
    3116, 
    3117, 
    3119, 
    3120, 
    3121, 
    3122, 
    3123, 
    3124, 
    3126, 
    3127, 
    3129, 
    3130, 
    3132, 
    3133, 
    3135, 
    3136, 
    3138, 
    3139, 
    3141, 
    3142, 
    3144, 
    3145, 
    3147, 
    3148, 
    3150, 
    3151, 
    3153, 
    3154, 
    3156, 
    3157, 
    3159, 
    3160, 
    3162, 
    3163, 
    3165, 
    3166, 
    3168, 
    3169, 
    3171, 
    3172, 
    3174, 
    3175, 
    3177, 
    3178, 
    3180, 
    3181, 
    3183, 
    3184, 
    3186, 
    3187, 
    3189, 
    3190, 
    3192, 
    3193, 
    3195, 
    3196, 
    3198, 
    3199, 
    3201, 
    3202, 
    3204, 
    3205, 
    3207, 
    3208, 
    3210, 
    3211, 
    3213, 
    3214, 
    3216, 
    3217, 
    3219, 
    3220, 
    3222, 
    3223, 
    3225, 
    3226, 
    3228, 
    3229, 
    3231, 
    3232, 
    3234, 
    3235, 
    3237, 
    3238, 
    3240, 
    3241, 
    3243, 
    3244, 
    3245, 
    3246, 
    3247, 
    3248, 
    3249, 
    3250, 
    3251, 
    3252, 
    3253, 
    3254, 
    3255, 
    3256, 
    3257, 
    3258, 
    3259, 
    3260, 
    3261, 
    3262, 
    3263, 
    3264, 
    3265, 
    3266, 
    3267, 
    3268, 
    3269, 
    3270, 
    3271, 
    3272, 
    3273, 
    3274, 
    3275, 
    3276, 
    3277, 
    3278, 
    3279, 
    3280, 
    3281, 
    3282, 
    3283, 
    3284, 
    3285, 
    3287, 
    3288, 
    3289, 
    3290, 
    3291, 
    3292, 
    3293, 
    3294, 
    3295, 
    3296, 
    3297, 
    3299, 
    3300, 
    3301, 
    3302, 
    3303, 
    3304, 
    3305, 
    3306, 
    3308, 
    3309, 
    3310, 
    3311, 
    3312, 
    3313, 
    3315, 
    3316, 
    3317, 
    3319, 
    3320, 
    3321, 
    3322, 
    3324, 
    3325, 
    3326, 
    3327, 
    3328, 
    3329, 
    3331, 
    3332, 
    3333, 
    3335, 
    3336, 
    3337, 
    3338, 
    3340, 
    3341, 
    3342, 
    3343, 
    3344, 
    3345, 
    3347, 
    3348, 
    3349, 
    3351, 
    3352, 
    3353, 
    3354, 
    3356, 
    3357, 
    3358, 
    3359, 
    3360, 
    3361, 
    3363, 
    3364, 
    3365, 
    3367, 
    3368, 
    3369, 
    3370, 
    3372, 
    3373, 
    3374, 
    3375, 
    3376, 
    3377, 
    3379, 
    3380, 
    3381, 
    3383, 
    3384, 
    3385, 
    3386, 
    3388, 
    3389, 
    3390, 
    3391, 
    3392, 
    3393, 
    3395, 
    3396, 
    3397, 
    3399, 
    3400, 
    3401, 
    3402, 
    3404, 
    3405, 
    3406, 
    3407, 
    3408, 
    3409, 
    3411, 
    3412, 
    3413, 
    3415, 
    3416, 
    3417, 
    3418, 
    3420, 
    3421, 
    3422, 
    3423, 
    3424, 
    3425, 
    3427, 
    3428, 
    3429, 
    3431, 
    3432, 
    3433, 
    3434, 
    3436, 
    3437, 
    3438, 
    3439, 
    3440, 
    3441, 
    3443, 
    3444, 
    3445, 
    3447, 
    3448, 
    3449, 
    3450, 
    3452, 
    3453, 
    3454, 
    3455, 
    3456, 
    3457, 
    3459, 
    3460, 
    3461, 
    3463, 
    3464, 
    3465, 
    3466, 
    3468, 
    3469, 
    3470, 
    3471, 
    3472, 
    3473, 
    3475, 
    3476, 
    3477, 
    3479, 
    3480, 
    3481, 
    3482, 
    3484, 
    3485, 
    3486, 
    3487, 
    3488, 
    3489, 
    3491, 
    3492, 
    3493, 
    3495, 
    3496, 
    3497, 
    3498, 
    3500, 
    3501, 
    3502, 
    3503, 
    3504, 
    3505, 
    3507, 
    3508, 
    3509, 
    3511, 
    3512, 
    3513, 
    3514, 
    3516, 
    3517, 
    3518, 
    3519, 
    3520, 
    3521, 
    3523, 
    3524, 
    3525, 
    3527, 
    3528, 
    3529, 
    3530, 
    3532, 
    3533, 
    3534, 
    3535, 
    3536, 
    3537, 
    3539, 
    3540, 
    3541, 
    3543, 
    3544, 
    3545, 
    3546, 
    3548, 
    3549, 
    3550, 
    3551, 
    3552, 
    3553, 
    3555, 
    3556, 
    3557, 
    3559, 
    3560, 
    3561, 
    3562, 
    3564, 
    3565, 
    3566, 
    3567, 
    3568, 
    3569, 
    3571, 
    3572, 
    3573, 
    3575, 
    3576, 
    3577, 
    3578, 
    3580, 
    3581, 
    3582, 
    3583, 
    3584, 
    3585, 
    3587, 
    3588, 
    3589, 
    3591, 
    3592, 
    3593, 
    3594, 
    3596, 
    3597, 
    3598, 
    3599, 
    3600, 
    3601, 
    3603, 
    3604, 
    3605, 
    3607, 
    3608, 
    3609, 
    3610, 
    3612, 
    3613, 
    3614, 
    3615, 
    3616, 
    3617, 
    3619, 
    3620, 
    3621, 
    3623, 
    3624, 
    3625, 
    3626, 
    3628, 
    3629, 
    3630, 
    3631, 
    3632, 
    3633, 
    3635, 
    3636, 
    3637, 
    3639, 
    3640, 
    3641, 
    3642, 
    3644, 
    3645, 
    3646, 
    3647, 
    3648, 
    3649, 
    3651, 
    3652, 
    3653, 
    3655, 
    3656, 
    3657, 
    3658, 
    3660, 
    3661, 
    3662, 
    3663, 
    3664, 
    3665, 
    3667, 
    3668, 
    3669, 
    3671, 
    3672, 
    3673, 
    3674, 
    3676, 
    3677, 
    3678, 
    3679, 
    3680, 
    3681, 
    3683, 
    3684, 
    3685, 
    3687, 
    3688, 
    3689, 
    3690, 
    3692, 
    3693, 
    3694, 
    3695, 
    3696, 
    3697, 
    3699, 
    3700, 
    3701, 
    3703, 
    3704, 
    3705, 
    3706, 
    3708, 
    3709, 
    3710, 
    3711, 
    3712, 
    3713, 
    3715, 
    3716, 
    3717, 
    3719, 
    3720, 
    3721, 
    3722, 
    3724, 
    3725, 
    3726, 
    3727, 
    3728, 
    3729, 
    3731, 
    3732, 
    3733, 
    3735, 
    3736, 
    3737, 
    3738, 
    3740, 
    3741, 
    3742, 
    3743, 
    3744, 
    3745, 
    3747, 
    3748, 
    3749, 
    3751, 
    3752, 
    3753, 
    3754, 
    3756, 
    3757, 
    3758, 
    3759, 
    3760, 
    3761, 
    3763, 
    3764, 
    3765, 
    3767, 
    3768, 
    3769, 
    3770, 
    3772, 
    3773, 
    3774, 
    3775, 
    3776, 
    3777, 
    3779, 
    3780, 
    3781, 
    3783, 
    3784, 
    3785, 
    3786, 
    3788, 
    3789, 
    3790, 
    3791, 
    3792, 
    3793, 
    3795, 
    3796, 
    3797, 
    3799, 
    3800, 
    3801, 
    3802, 
    3804, 
    3805, 
    3806, 
    3807, 
    3808, 
    3809, 
    3811, 
    3812, 
    3813, 
    3815, 
    3816, 
    3817, 
    3818, 
    3820, 
    3821, 
    3822, 
    3823, 
    3824, 
    3825, 
    3827, 
    3828, 
    3829, 
    3831, 
    3832, 
    3833, 
    3834, 
    3836, 
    3837, 
    3838, 
    3839, 
    3840, 
    3841, 
    3843, 
    3844, 
    3845, 
    3847, 
    3848, 
    3849, 
    3850, 
    3852, 
    3853, 
    3854, 
    3855, 
    3856, 
    3857, 
    3859, 
    3860, 
    3861, 
    3863, 
    3864, 
    3865, 
    3866, 
    3868, 
    3869, 
    3870, 
    3871, 
    3872, 
    3873, 
    3875, 
    3876, 
    3877, 
    3879, 
    3880, 
    3881, 
    3882, 
    3884, 
    3885, 
    3886, 
    3887, 
    3888, 
    3889, 
    3891, 
    3892, 
    3893, 
    3895, 
    3896, 
    3897, 
    3898, 
    3900, 
    3901, 
    3902, 
    3903, 
    3904, 
    3905, 
    3907, 
    3908, 
    3909, 
    3911, 
    3912, 
    3913, 
    3914, 
    3916, 
    3917, 
    3918, 
    3919, 
    3920, 
    3921, 
    3923, 
    3924, 
    3925, 
    3927, 
    3928, 
    3929, 
    3930, 
    3931, 
    3932, 
    3933, 
    3934, 
    3935, 
    3937, 
    3938, 
    3939, 
    3940, 
    3941, 
    3942, 
    3944, 
    3945, 
    3946, 
    3947, 
    3948, 
    3949, 
    3951, 
    3952, 
    3953, 
    3954, 
    3955, 
    3956, 
    3958, 
    3959, 
    3960, 
    3961, 
    3962, 
    3963, 
    3965, 
    3966, 
    3967, 
    3968, 
    3969, 
    3970, 
    3972, 
    3973, 
    3974, 
    3975, 
    3976, 
    3977, 
    3979, 
    3980, 
    3981, 
    3982, 
    3983, 
    3984, 
    3986, 
    3987, 
    3988, 
    3989, 
    3990, 
    3991, 
    3993, 
    3994, 
    3995, 
    3996, 
    3997, 
    3998, 
    4000, 
    4001, 
    4002, 
    4003, 
    4004, 
    4005, 
    4007, 
    4008, 
    4009, 
    4010, 
    4011, 
    4012, 
    4014, 
    4015, 
    4016, 
    4017, 
    4018, 
    4019, 
    4021, 
    4022, 
    4023, 
    4024, 
    4025, 
    4026, 
    4028, 
    4029, 
    4030, 
    4031, 
    4032, 
    4033, 
    4035, 
    4036, 
    4037, 
    4038, 
    4039, 
    4040, 
    4042, 
    4043, 
    4044, 
    4045, 
    4046, 
    4047, 
    4049, 
    4050, 
    4051, 
    4052, 
    4053, 
    4054, 
    4056, 
    4057, 
    4058, 
    4059, 
    4060, 
    4061, 
    4063, 
    4064, 
    4065, 
    4066, 
    4067, 
    4068, 
    4070, 
    4071, 
    4072, 
    4073, 
    4074, 
    4075, 
    4077, 
    4078, 
    4079, 
    4080, 
    4081, 
    4082, 
    4084, 
    4085, 
    4086, 
    4087, 
    4088, 
    4089, 
    4091, 
    4092, 
    4093, 
    4094, 
    4095, 
    4096, 
    4098, 
    4099, 
    4100, 
    4101, 
    4102, 
    4103, 
    4105, 
    4106, 
    4107, 
    4108, 
    4109, 
    4110, 
    4112, 
    4113, 
    4114, 
    4115, 
    4116, 
    4117, 
    4119, 
    4120, 
    4121, 
    4122, 
    4123, 
    4124, 
    4126, 
    4127, 
    4128, 
    4129, 
    4130, 
    4131, 
    4133, 
    4134, 
    4135, 
    4136, 
    4137, 
    4138, 
    4140, 
    4141, 
    4142, 
    4143, 
    4144, 
    4145, 
    4147, 
    4148, 
    4149, 
    4150, 
    4151, 
    4152, 
    4154, 
    4155, 
    4156, 
    4157, 
    4158, 
    4159, 
    4161, 
    4162, 
    4163, 
    4164, 
    4165, 
    4166, 
    4168, 
    4169, 
    4170, 
    4171, 
    4172, 
    4173, 
    4175, 
    4176, 
    4177, 
    4178, 
    4179, 
    4180, 
    4182, 
    4183, 
    4184, 
    4185, 
    4186, 
    4187, 
    4189, 
    4190, 
    4191, 
    4192, 
    4193, 
    4194, 
    4196, 
    4197, 
    4198, 
    4199, 
    4200, 
    4201, 
    4203, 
    4204, 
    4205, 
    4206, 
    4207, 
    4208, 
    4210, 
    4211, 
    4213, 
    4214, 
    4216, 
    4217, 
    4219, 
    4220, 
    4222, 
    4223, 
    4225, 
    4226, 
    4228, 
    4229, 
    4231, 
    4232, 
    4234, 
    4235, 
    4237, 
    4238, 
    4240, 
    4241, 
    4243, 
    4244, 
    4246, 
    4247, 
    4249, 
    4250, 
    4252, 
    4253, 
    4255, 
    4256, 
    4258, 
    4259, 
    4261, 
    4262, 
    4264, 
    4265, 
    4267, 
    4268, 
    4270, 
    4271, 
    4273, 
    4274, 
    4276, 
    4277, 
    4279, 
    4280, 
    4282, 
    4283, 
    4285, 
    4286, 
    4288, 
    4289, 
    4291, 
    4292, 
    4294, 
    4295, 
    4297, 
    4298, 
    4300, 
    4301, 
    4303, 
    4304, 
    4306, 
    4307, 
    4309, 
    4310, 
    4312, 
    4313, 
    4315, 
    4316, 
    4318, 
    4319, 
    4321, 
    4322, 
    4324, 
    4325, 
    4327, 
    4328, 
    4329, 
    4330, 
    4331, 
    4332, 
    4333, 
    4334, 
    4335, 
    4336, 
    4337, 
    4338, 
    4339, 
    4340, 
    4341, 
    4342, 
    4343, 
    4344, 
    4345, 
    4346, 
    4347, 
    4348, 
    4349, 
    4350, 
    4351, 
    4352, 
    4353, 
    4354, 
    4355, 
    4356, 
    4357, 
    4358, 
    4359, 
    4360, 
    4361, 
    4362, 
    4363, 
    4364, 
    4365, 
    4366, 
    4367, 
    4368, 
    4369, 
    4370, 
    4371, 
    4372, 
    4374, 
    4375, 
    4376, 
    4377, 
    4378, 
    4379, 
    4381, 
    4382, 
    4383, 
    4384, 
    4385, 
    4386, 
    4388, 
    4389, 
    4390, 
    4391, 
    4392, 
    4393, 
    4395, 
    4396, 
    4397, 
    4398, 
    4399, 
    4400, 
    4402, 
    4403, 
    4404, 
    4405, 
    4406, 
    4407, 
    4409, 
    4410, 
    4411, 
    4412, 
    4413, 
    4414, 
    4416, 
    4417, 
    4418, 
    4419, 
    4420, 
    4421, 
    4423, 
    4424, 
    4425, 
    4426, 
    4427, 
    4428, 
    4430, 
    4431, 
    4432, 
    4433, 
    4434, 
    4435, 
    4437, 
    4438, 
    4439, 
    4440, 
    4441, 
    4442, 
    4444, 
    4445, 
    4446, 
    4447, 
    4448, 
    4449, 
    4451, 
    4452, 
    4453, 
    4454, 
    4455, 
    4456, 
    4458, 
    4459, 
    4460, 
    4461, 
    4462, 
    4463, 
    4465, 
    4466, 
    4467, 
    4468, 
    4469, 
    4470, 
    4472, 
    4473, 
    4474, 
    4475, 
    4476, 
    4477, 
    4479, 
    4480, 
    4481, 
    4482, 
    4483, 
    4484, 
    4486, 
    4487, 
    4488, 
    4489, 
    4490, 
    4491, 
    4493, 
    4494, 
    4495, 
    4496, 
    4497, 
    4498, 
    4500, 
    4501, 
    4502, 
    4503, 
    4504, 
    4505, 
    4507, 
    4508, 
    4509, 
    4510, 
    4511, 
    4512, 
    4514, 
    4515, 
    4516, 
    4517, 
    4518, 
    4519, 
    4521, 
    4522, 
    4523, 
    4524, 
    4525, 
    4526, 
    4528, 
    4529, 
    4530, 
    4531, 
    4532, 
    4533, 
    4535, 
    4536, 
    4537, 
    4538, 
    4539, 
    4540, 
    4542, 
    4543, 
    4544, 
    4545, 
    4546, 
    4547, 
    4549, 
    4550, 
    4551, 
    4552, 
    4553, 
    4554, 
    4556, 
    4557, 
    4558, 
    4559, 
    4560, 
    4561, 
    4563, 
    4564, 
    4565, 
    4566, 
    4567, 
    4568, 
    4570, 
    4571, 
    4572, 
    4573, 
    4574, 
    4575, 
    4577, 
    4578, 
    4579, 
    4580, 
    4581, 
    4582, 
    4584, 
    4585, 
    4586, 
    4587, 
    4588, 
    4589, 
    4591, 
    4592, 
    4593, 
    4594, 
    4595, 
    4596, 
    4598, 
    4599, 
    4600, 
    4601, 
    4602, 
    4603, 
    4605, 
    4606, 
    4607, 
    4608, 
    4609, 
    4610, 
    4612, 
    4613, 
    4614, 
    4615, 
    4616, 
    4617, 
    4619, 
    4620, 
    4621, 
    4622, 
    4623, 
    4624, 
    4626, 
    4627, 
    4628, 
    4629, 
    4630, 
    4631, 
    4633, 
    4634, 
    4635, 
    4636, 
    4637, 
    4638, 
    4640, 
    4641, 
    4642, 
    4643, 
    4644, 
    4645, 
    4647, 
    4648, 
    4649, 
    4650, 
    4651, 
    4652, 
    4654, 
    4655, 
    4656, 
    4657, 
    4658, 
    4659, 
    4661, 
    4662, 
    4663, 
    4664, 
    4665, 
    4666, 
    4668, 
    4669, 
    4670, 
    4671, 
    4672, 
    4673, 
    4675, 
    4676, 
    4677, 
    4678, 
    4679, 
    4680, 
    4682, 
    4683, 
    4684, 
    4685, 
    4686, 
    4687, 
    4689, 
    4690, 
    4691, 
    4692, 
    4693, 
    4694, 
    4696, 
    4697, 
    4698, 
    4699, 
    4700, 
    4701, 
    4703, 
    4704, 
    4705, 
    4706, 
    4707, 
    4708, 
    4710, 
    4711, 
    4712, 
    4713, 
    4714, 
    4715, 
    4717, 
    4718, 
    4719, 
    4720, 
    4721, 
    4722, 
    4724, 
    4725, 
    4726, 
    4727, 
    4728, 
    4729, 
    4731, 
    4732, 
    4733, 
    4734, 
    4735, 
    4736, 
    4738, 
    4739, 
    4740, 
    4741, 
    4742, 
    4743, 
    4745, 
    4746, 
    4747, 
    4748, 
    4749, 
    4750, 
    4752, 
    4753, 
    4754, 
    4755, 
    4756, 
    4757, 
    4759, 
    4760, 
    4761, 
    4762, 
    4763, 
    4764, 
    4766, 
    4767, 
    4768, 
    4769, 
    4770, 
    4771, 
    4773, 
    4774, 
    4775, 
    4776, 
    4777, 
    4778, 
    4780, 
    4781, 
    4782, 
    4783, 
    4784, 
    4785, 
    4787, 
    4788, 
    4789, 
    4790, 
    4791, 
    4792, 
    4794, 
    4795, 
    4796, 
    4797, 
    4798, 
    4799, 
    4801, 
    4802, 
    4803, 
    4804, 
    4805, 
    4806, 
    4808, 
    4809, 
    4810, 
    4811, 
    4812, 
    4813, 
    4815, 
    4816, 
    4817, 
    4818, 
    4819, 
    4820, 
    4822, 
    4823, 
    4824, 
    4825, 
    4826, 
    4827, 
    4829, 
    4830, 
    4831, 
    4832, 
    4833, 
    4834, 
    4836, 
    4837, 
    4838, 
    4839, 
    4840, 
    4841, 
    4843, 
    4844, 
    4845, 
    4846, 
    4847, 
    4848, 
    4850, 
    4851, 
    4852, 
    4853, 
    4854, 
    4855, 
    4857, 
    4858, 
    4859, 
    4860, 
    4861, 
    4862, 
    4864, 
    4865, 
    4866, 
    4867, 
    4868, 
    4869, 
    4871, 
    4872, 
    4873, 
    4874, 
    4875, 
    4876, 
    4878, 
    4879, 
    4880, 
    4881, 
    4882, 
    4883, 
    4885, 
    4886, 
    4887, 
    4888, 
    4889, 
    4890, 
    4892, 
    4893, 
    4894, 
    4895, 
    4896, 
    4897, 
    4899, 
    4900, 
    4901, 
    4902, 
    4903, 
    4904, 
    4906, 
    4907, 
    4908, 
    4909, 
    4910, 
    4911, 
    4913, 
    4914, 
    4915, 
    4916, 
    4917, 
    4919, 
    4920, 
    4922, 
    4923, 
    4924, 
    4925, 
    4926, 
    4927, 
    4928, 
    4931, 
    4932, 
    4933, 
    4934, 
    4935, 
    4936, 
    4937, 
    4940, 
    4941, 
    4942, 
    4943, 
    4944, 
    4945, 
    4946, 
    4949, 
    4950, 
    4951, 
    4952, 
    4953, 
    4954, 
    4955, 
    4956, 
    4959, 
    4960, 
    4961, 
    4962, 
    4963, 
    4964, 
    4965, 
    4966, 
    4967, 
    4968, 
    4969, 
    4972, 
    4973, 
    4974, 
    4975, 
    4976, 
    4977, 
    4978, 
    4979, 
    4982, 
    4983, 
    4984, 
    4985, 
    4986, 
    4987, 
    4988, 
    4989, 
    4990, 
    4993, 
    4994, 
    4995, 
    4996, 
    4997, 
    4998, 
    4999, 
    5000, 
    5003, 
    5004, 
    5005, 
    5006, 
    5007, 
    5008, 
    5009, 
    5010, 
    5011, 
    5012, 
    5013, 
    5016, 
    5017, 
    5018, 
    5019, 
    5020, 
    5021, 
    5022, 
    5023, 
    5026, 
    5027, 
    5028, 
    5029, 
    5030, 
    5031, 
    5032, 
    5033, 
    5034, 
    5037, 
    5038, 
    5039, 
    5040, 
    5041, 
    5042, 
    5043, 
    5044, 
    5047, 
    5048, 
    5049, 
    5050, 
    5051, 
    5052, 
    5053, 
    5054, 
    5055, 
    5056, 
    5057, 
    5060, 
    5061, 
    5062, 
    5063, 
    5064, 
    5065, 
    5066, 
    5067, 
    5070, 
    5071, 
    5072, 
    5073, 
    5074, 
    5075, 
    5076, 
    5077, 
    5078, 
    5081, 
    5082, 
    5083, 
    5084, 
    5085, 
    5086, 
    5087, 
    5088, 
    5091, 
    5092, 
    5093, 
    5094, 
    5095, 
    5096, 
    5097, 
    5098, 
    5099, 
    5100, 
    5101, 
    5104, 
    5105, 
    5106, 
    5107, 
    5108, 
    5109, 
    5110, 
    5111, 
    5114, 
    5115, 
    5116, 
    5117, 
    5118, 
    5119, 
    5120, 
    5121, 
    5122, 
    5125, 
    5126, 
    5127, 
    5128, 
    5129, 
    5130, 
    5131, 
    5140, 
    5141, 
    5142, 
    5143, 
    5144, 
    5145, 
    5146, 
    5147, 
    5148, 
    5149, 
    5150, 
    5152, 
    5153, 
    5154, 
    5155, 
    5156, 
    5157, 
    5158, 
    5159, 
    5160, 
    5161, 
    5162, 
    5163, 
    5164, 
    5165, 
    5166, 
    5167, 
    5168, 
    5169, 
    5170, 
    5171, 
    5172, 
    5174, 
    5175, 
    5176, 
    5177, 
    5178, 
    5179, 
    5181, 
    5182, 
    5183, 
    5184, 
    5185, 
    5186, 
    5188, 
    5189, 
    5190, 
    5191, 
    5192, 
    5193, 
    5195, 
    5196, 
    5197, 
    5198, 
    5199, 
    5200, 
    5202, 
    5203, 
    5204, 
    5205, 
    5206, 
    5207, 
    5209, 
    5210, 
    5211, 
    5212, 
    5213, 
    5214, 
    5216, 
    5217, 
    5218, 
    5219, 
    5220, 
    5221, 
    5223, 
    5224, 
    5225, 
    5226, 
    5227, 
    5228, 
    5230, 
    5231, 
    5233, 
    5234, 
    5236, 
    5237, 
    5239, 
    5240, 
    5242, 
    5243, 
    5245, 
    5246, 
    5248, 
    5249, 
    5251, 
    5252, 
    5254, 
    5255, 
    5256, 
    5257, 
    5258, 
    5259, 
    5260, 
    5261, 
    5262, 
    5263, 
    5264, 
    5265, 
    5267, 
    5268, 
    5269, 
    5270, 
    5271, 
    5272, 
    5273, 
    5274, 
    5275, 
    5276, 
    5277, 
    5279, 
    5280, 
    5281, 
    5282, 
    5283, 
    5284, 
    5285, 
    5286, 
    5288, 
    5289, 
    5290, 
    5291, 
    5292, 
    5293, 
    5295, 
    5296, 
    5297, 
    5299, 
    5300, 
    5301, 
    5302, 
    5304, 
    5305, 
    5306, 
    5307, 
    5308, 
    5309, 
    5311, 
    5312, 
    5313, 
    5315, 
    5316, 
    5317, 
    5318, 
    5320, 
    5321, 
    5322, 
    5323, 
    5324, 
    5325, 
    5327, 
    5328, 
    5329, 
    5331, 
    5332, 
    5333, 
    5334, 
    5336, 
    5337, 
    5338, 
    5339, 
    5340, 
    5341, 
    5343, 
    5344, 
    5345, 
    5347, 
    5348, 
    5349, 
    5350, 
    5352, 
    5353, 
    5354, 
    5355, 
    5356, 
    5357, 
    5359, 
    5360, 
    5361, 
    5363, 
    5364, 
    5365, 
    5366, 
    5368, 
    5369, 
    5370, 
    5371, 
    5372, 
    5373, 
    5375, 
    5376, 
    5377, 
    5379, 
    5380, 
    5381, 
    5382, 
    5384, 
    5385, 
    5386, 
    5387, 
    5388, 
    5389, 
    5391, 
    5392, 
    5393, 
    5395, 
    5396, 
    5397, 
    5398, 
    5400, 
    5401, 
    5402, 
    5403, 
    5404, 
    5405, 
    5407, 
    5408, 
    5409, 
    5411, 
    5412, 
    5413, 
    5414, 
    5415, 
    5416, 
    5417, 
    5418, 
    5419, 
    5421, 
    5422, 
    5423, 
    5424, 
    5425, 
    5426, 
    5428, 
    5429, 
    5430, 
    5431, 
    5432, 
    5433, 
    5435, 
    5436, 
    5437, 
    5438, 
    5439, 
    5440, 
    5442, 
    5443, 
    5444, 
    5445, 
    5446, 
    5447, 
    5449, 
    5450, 
    5451, 
    5452, 
    5453, 
    5454, 
    5456, 
    5457, 
    5458, 
    5459, 
    5460, 
    5461, 
    5463, 
    5464, 
    5465, 
    5466, 
    5467, 
    5468, 
    5470, 
    5471, 
    5472, 
    5473, 
    5474, 
    5475, 
    5477, 
    5478, 
    5480, 
    5481, 
    5483, 
    5484, 
    5486, 
    5487, 
    5489, 
    5490, 
    5492, 
    5493, 
    5495, 
    5496, 
    5498, 
    5499, 
    5501, 
    5502, 
    5503, 
    5504, 
    5505, 
    5506, 
    5507, 
    5508, 
    5509, 
    5510, 
    5511, 
    5512, 
    5514, 
    5515, 
    5516, 
    5517, 
    5518, 
    5519, 
    5520, 
    5521, 
    5522, 
    5523, 
    5524, 
    5526, 
    5527, 
    5528, 
    5529, 
    5530, 
    5531, 
    5532, 
    5533, 
    5535, 
    5536, 
    5537, 
    5538, 
    5539, 
    5540, 
    5542, 
    5543, 
    5544, 
    5546, 
    5547, 
    5548, 
    5549, 
    5551, 
    5552, 
    5553, 
    5554, 
    5555, 
    5556, 
    5558, 
    5559, 
    5560, 
    5562, 
    5563, 
    5564, 
    5565, 
    5567, 
    5568, 
    5569, 
    5570, 
    5571, 
    5572, 
    5574, 
    5575, 
    5576, 
    5578, 
    5579, 
    5580, 
    5581, 
    5583, 
    5584, 
    5585, 
    5586, 
    5587, 
    5588, 
    5590, 
    5591, 
    5592, 
    5594, 
    5595, 
    5596, 
    5597, 
    5599, 
    5600, 
    5601, 
    5602, 
    5603, 
    5604, 
    5606, 
    5607, 
    5608, 
    5610, 
    5611, 
    5612, 
    5613, 
    5615, 
    5616, 
    5617, 
    5618, 
    5619, 
    5620, 
    5622, 
    5623, 
    5624, 
    5626, 
    5627, 
    5628, 
    5629, 
    5631, 
    5632, 
    5633, 
    5634, 
    5635, 
    5636, 
    5638, 
    5639, 
    5640, 
    5642, 
    5643, 
    5644, 
    5645, 
    5647, 
    5648, 
    5649, 
    5650, 
    5651, 
    5652, 
    5654, 
    5655, 
    5656, 
    5658, 
    5659, 
    5660, 
    5661, 
    5662, 
    5663, 
    5664, 
    5665, 
    5666, 
    5668, 
    5669, 
    5670, 
    5671, 
    5672, 
    5673, 
    5675, 
    5676, 
    5677, 
    5678, 
    5679, 
    5680, 
    5682, 
    5683, 
    5684, 
    5685, 
    5686, 
    5687, 
    5689, 
    5690, 
    5691, 
    5692, 
    5693, 
    5694, 
    5696, 
    5697, 
    5698, 
    5699, 
    5700, 
    5701, 
    5703, 
    5704, 
    5705, 
    5706, 
    5707, 
    5708, 
    5710, 
    5711, 
    5712, 
    5713, 
    5714, 
    5715, 
    5717, 
    5718, 
    5719, 
    5720, 
    5721, 
    5722, 
    5724, 
    5725, 
    5727, 
    5728, 
    5730, 
    5731, 
    5733, 
    5734, 
    5736, 
    5737, 
    5739, 
    5740, 
    5742, 
    5743, 
    5745, 
    5746, 
    5748, 
    5749, 
    5750, 
    5751, 
    5752, 
    5753, 
    5754, 
    5755, 
    5756, 
    5757, 
    5758, 
    5759, 
    5760, 
    5761, 
    5762, 
    5764, 
    5765, 
    5766, 
    5767, 
    5768, 
    5769, 
    5771, 
    5772, 
    5773, 
    5774, 
    5775, 
    5776, 
    5778, 
    5779, 
    5780, 
    5781, 
    5782, 
    5783, 
    5785, 
    5786, 
    5787, 
    5788, 
    5789, 
    5790, 
    5792, 
    5793, 
    5794, 
    5795, 
    5796, 
    5797, 
    5799, 
    5800, 
    5801, 
    5802, 
    5803, 
    5804, 
    5806, 
    5807, 
    5808, 
    5809, 
    5810, 
    5811, 
    5813, 
    5814, 
    5815, 
    5816, 
    5817, 
    5818, 
    5820, 
    5821, 
    5822, 
    5823, 
    5824, 
    5825, 
    5827, 
    5828, 
    5829, 
    5830, 
    5831, 
    5832, 
    5834, 
    5835, 
    5836, 
    5837, 
    5838, 
    5839, 
    5841, 
    5842, 
    5843, 
    5844, 
    5845, 
    5846, 
    5848, 
    5849, 
    5850, 
    5851, 
    5852, 
    5853, 
    5855, 
    5856, 
    5857, 
    5858, 
    5859, 
    5860, 
    5862, 
    5863, 
    5864, 
    5865, 
    5866, 
    5867, 
    5869, 
    5870, 
    5871, 
    5872, 
    5873, 
    5875, 
    5876, 
    5878, 
    5879, 
    5880, 
    5881, 
    5882, 
    5883, 
    5884, 
    5885, 
    5886, 
    5887, 
    5888, 
    5889, 
    5890, 
    5891, 
    5892, 
    5893, 
    5894, 
    5895, 
    5896, 
    5897, 
    5898, 
    5899, 
    5900, 
    5901, 
    5902, 
    5903, 
    5904, 
    5905, 
    5906, 
    5907, 
    5908, 
    5909, 
    5910, 
    5911, 
    5912, 
    5913, 
    5914, 
    5915, 
    5916, 
    5917, 
    5918, 
    5919, 
    5920, 
    5921, 
    5922, 
    5923, 
    5924, 
    5925, 
    5926, 
    5927, 
    5928, 
    5929, 
    5930, 
    5931, 
    5932, 
    5933, 
    5934, 
    5935
  ], 
  "heads": [[4821, 0, 0], [4826, 0, 0], [4831, 0, 0], [4836, 0, 0], [4841, 0, 0], [4846, 0, 0], [4851, 0, 0], [4856, 0, 0], [4861, 0, 0], [4866, 0, 0]], 
  "attrs": {"mxnet_version": ["int", 10000]}
}